Facical Keypoints /lightning_logs/cĺs_logs/version_12/checkpoints/epoch=0-step=773.ckpt (torch, 734345 bytes, 48 tensors)

cnn_layers.0.weight f4 [4, 1, 5, 5]
000000 da 7a 21 be ca 00 72 bd 76 9c 53 3e 70 7f ad bd
       -0.1576952 -0.059082784 0.20665154 -0.084715724
000010 3d e8 9f bd c7 e4 49 3e 4e 88 bd 3d a3 51 b3 3c
       -0.07807968 0.19716178 0.09254514 0.021889513
000020 d9 84 9a 3d f6 a0 19 be 71 4b a2 bd e7 26 b1 bd
       0.0754487 -0.15002808 -0.079245456 -0.08649998
000030 84 e3 4b 3e 48 79 17 be 59 ad 52 be 17 63 b2 3d
       0.19911009 -0.14792359 -0.2057394 0.08710306
000040 77 5c 2e 3e c8 d4 67 bb ae f5 75 3d 80 00 26 bc
       0.1702746 -0.003537463 0.06004875 -0.010131955
000050 b9 4b f1 bd 08 89 14 bd 41 f3 35 bd 40 91 2a 3d
       -0.11782021 -0.036263496 -0.044421438 0.041642427
000060 bc ed 00 be 40 6d 1e 3e e4 92 c7 3d b2 99 e8 bd
       -0.12590688 0.15471363 0.09744814 -0.1135744
000070 b6 bf eb bc 6b 35 51 be 19 06 48 be 4f c0 2d be
       -0.028777938 -0.20430534 -0.19533576 -0.16967891
000080 eb b2 12 3c 7e b6 bb bd ec 65 4b be c7 69 b7 bd
       0.00895379 -0.09165667 -0.19863099 -0.08955722
000090 4d 0f 17 3e 25 64 df bd 30 40 25 3e 4f fd a8 bd
       0.1475193 -0.10907773 0.16137767 -0.0825144
0000a0 10 1d 06 be 12 87 85 bd 43 57 54 be 44 9a 1d 3e
       -0.13097024 -0.06519903 -0.20736413 0.15390879
0000b0 6d 43 16 3e 53 58 d5 3d ef ed d1 bd 7b f8 57 be
       0.14674158 0.10417237 -0.1025046 -0.21090882
0000c0 10 92 9e bc 9b ce 09 3e 70 08 01 3e af 2f 06 be
       -0.019356757 0.1345772 0.12600875 -0.13104127
0000d0 c0 4d 83 3d 89 5d 00 3e 03 05 fb 3c b9 8d a7 3c
       0.06411314 0.12535681 0.030642038 0.02045332
0000e0 bf 04 23 3e db c8 0b 3d af b1 22 3e 68 2b 5b be
       0.15919779 0.034127098 0.15888093 -0.21403277
0000f0 c6 c4 29 be 37 c2 85 3d f2 7b eb bd 37 05 42 bc
       -0.1657897 0.06531184 -0.1149825 -0.011842064
000100 ac 87 0e be 33 7a ee 3d 90 fe 10 3e 22 02 fd 3d
       -0.13918942 0.116444014 0.14159608 0.123539224
000110 b0 28 2b be 29 8b 19 be db 60 89 bd 50 2f 0f 3d
       -0.1671474 -0.14994492 -0.06707927 0.03495723
000120 f4 25 e2 bd 2f b1 2a 3e c5 b6 ef 3b 42 38 0b 3d
       -0.11042395 0.16669153 0.007315489 0.0339892
000130 22 78 66 3d 31 de 83 bc fc 74 4c be 3a 72 9a 3d
       0.05626691 -0.01609716 -0.19966501 0.07541318
000140 0a 78 bb bd a4 fa 31 be c5 28 2c be 15 82 95 3d
       -0.09153755 -0.17380768 -0.16812427 0.07300202
000150 53 03 b7 3d 15 d5 39 be 3a 02 44 be 7f 6d ae 3c
       0.08936181 -0.1814769 -0.19141474 0.021292446
000160 00 11 15 be b0 71 2f be 49 75 07 3e 50 93 b5 3d
       -0.14557266 -0.17133212 0.13228334 0.08865988
000170 95 60 15 be e6 44 e7 3d bf 90 f3 3d 54 e1 61 3c
       -0.14587624 0.11292438 0.118928425 0.013786633
000180 5a 72 39 bd 88 d9 24 be 8b 2d 89 bc b3 e8 ec bd
       -0.04527507 -0.16098607 -0.01674535 -0.11567821

cnn_layers.0.bias f4 [4]
000000 c1 34 26 3e 3c 73 18 3d b2 4b 08 be 3c 57 1f 3e
       0.16231062 0.03721927 -0.13310125 0.15560621

cnn_layers.1.weight f4 [4]
000000 e3 cf 84 3f 7e b1 7f 3f 56 c2 79 3f 23 3b 7e 3f
       1.0375942 0.99880207 0.9756216 0.99308985

cnn_layers.1.bias f4 [4]
000000 27 e2 7c bb bc ea ec 3c c5 c6 bc bc c1 e3 79 3c
       -0.0038586946 0.028920524 -0.023044 0.015252055

cnn_layers.1.running_mean f4 [4]
000000 e5 6d 84 3d 3a b2 b4 be 03 09 b1 bd ee ee 8d be
       0.06466273 -0.35292226 -0.08644297 -0.2772135

cnn_layers.1.running_var f4 [4]
000000 0a 0d b6 3b ea 9f 1d 3d 30 79 6c 3b 82 94 41 3d
       0.0055557536 0.038482584 0.0036082976 0.04726077

cnn_layers.4.weight f4 [8, 4, 3, 3]
000000 42 29 d2 3d f1 39 09 bb 15 9e 2a 3d 65 73 23 3e
       0.102617756 -0.0020939077 0.041654665 0.15961988
000010 a9 04 e9 3d d7 b3 3a 3e 6e bf 91 bc 2a 5b e5 bc
       0.11377842 0.18232666 -0.017791476 -0.027997572
000020 ad e2 eb bd 4a 53 e2 3d 29 a5 0d bd ab 09 15 3e
       -0.11517844 0.110510424 -0.034581337 0.1455447
000030 28 10 91 3d 82 cb 95 bd ec b7 01 be 04 84 0b 3e
       0.0708316 -0.07314207 -0.12667817 0.13624579
000040 35 26 c0 bd 63 45 72 bd 34 d0 af bd dd 9f 58 3b
       -0.093822874 -0.059148204 -0.085846335 0.003305427
000050 ee 45 80 bd 4e c3 f0 bd e5 bd f4 3b 2f 8e 5a 3d
       -0.06263338 -0.117560014 0.0074689263 0.053358253
000060 74 e4 af 3b 6a 4b 8f 3d cf e0 84 bc e9 a6 cd 3d
       0.00536781 0.06996806 -0.016220478 0.10041601
000070 14 68 1f 3e d4 3a 0b 3e d5 32 11 3e 94 93 51 3c
       0.15567046 0.1359666 0.14179547 0.012791533
000080 ae 80 13 3e 8e e2 55 bc f0 39 9a bd 15 0c a7 3d
       0.14404556 -0.013054503 -0.07530582 0.08156601
000090 50 22 29 be 9d db 87 3d 45 16 7b bc d5 cc ea 3d
       -0.16516995 0.06633685 -0.015325134 0.1146485
0000a0 7f 74 0e be 13 30 bd bd b8 37 c8 3c d5 a2 90 3d
       -0.13911627 -0.09237685 0.024440631 0.07062308
0000b0 8d a3 e2 3a b6 73 95 3b e0 ac 36 bd 7d 76 1e be
       0.0017291174 0.004560913 -0.04459846 -0.15474887
0000c0 53 21 75 bd 5b 96 bc bd d0 94 50 bd 75 df 14 be
       -0.059846234 -0.092083655 -0.05092317 -0.14538367
0000d0 dd 98 02 be 3e 7f dc bd ff 1e cb bd 5f ba 0d bd
       -0.12753625 -0.10766457 -0.099180214 -0.034601565
0000e0 31 db 07 bc a4 4b f5 bc 12 1f a1 bd f8 c3 50 3d
       -0.008292005 -0.029943295 -0.07867254 0.05096814
0000f0 f0 52 9a 3d 6c 4c d6 bd 20 3f 7f bd 0c ce 06 3e
       0.0753535 -0.10463795 -0.06231606 0.13164538
000100 0d 92 09 bd b2 e0 96 bd 8c e8 ed bd f9 05 d8 bd
       -0.03358655 -0.07367076 -0.116166204 -0.10548014
000110 6a fc e5 3d b6 f9 26 bc 9a 2c 36 be 70 e5 1c 3d
       0.11229785 -0.010191372 -0.17790452 0.038304746
000120 45 c7 f5 3d 25 99 d5 bd f4 ec 7c bd 15 f2 32 be
       0.12000898 -0.104296006 -0.061749414 -0.1747516
000130 33 45 bf 3d 2e a7 fc bc 73 51 3d be ab 6b da bd
       0.093393706 -0.030841436 -0.18488102 -0.10665067
000140 1c fd f9 bd a2 de f0 3d 75 1d a2 3d 70 e5 04 be
       -0.1220648 0.11761214 0.07915775 -0.12978148
000150 a4 58 4e 3c b7 ab a9 3d 0d 8f a8 bd 1b 0c 06 be
       0.012594376 0.08284705 -0.0823041 -0.13090555
000160 9d f9 24 bd 9a e6 32 be 00 13 53 bd 10 20 ee 3d
       -0.040277112 -0.1747078 -0.05153179 0.11627209
000170 1c 3b b8 bd fd b8 09 bb 89 5d 28 bc fe 8d 8b bd
       -0.08995649 -0.0021014803 -0.010276207 -0.06814192
000180 55 32 b3 3c ef 6f cd bd 27 4c 79 3d 32 4e 32 bd
       0.021874586 -0.10031115 0.06086364 -0.043531604
000190 bf 65 a6 3d fb ca bb 3d 0d 9a 10 be 24 ce a2 3d
       0.08124875 0.09169575 -0.14121266 0.079494745
0001a0 38 00 d4 3d 32 4f a0 bd 9b 4b 4e 3d 4b 68 81 bd
       0.10351604 -0.07827605 0.05036507 -0.063187204
0001b0 c7 c8 ce bd b6 b9 9a bd 5a ce b9 3d 1f 94 fa bc
       -0.10096889 -0.07554953 0.090725616 -0.030588208
0001c0 1c 9d 0f 3e c6 84 d2 3c a6 94 f4 bd 34 65 1f 3d
       0.14024776 0.025698077 -0.11942415 0.038914874
0001d0 6e 13 8f bd c5 24 1b bd 2b d8 7e 3d 6a 0a a3 3d
       -0.06986128 -0.037876863 0.062217873 0.07960971
0001e0 38 62 cc 3b 1c d2 e7 bd 6d 48 bb 3d b1 e9 4c 3c
       0.0062372945 -0.11319372 0.091446735 0.012506888
0001f0 15 ad 71 3d ce 63 9f 3d 6a fb 0c be 58 f3 9e bd
       0.059002955 0.07782708 -0.13767782 -0.07761258
000200 1f 7d 15 3e 4f 68 1b be 8b 81 3e bd 99 41 11 bd
       0.14598511 -0.1517651 -0.04651026 -0.03546295
000210 e1 e0 08 be 23 bc 10 3e aa d2 27 bc 5a e9 04 3e
       -0.13367034 0.14134268 -0.010243097 0.12979642
000220 c2 fa c1 39 fe d8 cd 3d 0d 18 dc 3d 05 40 df 3d
       0.00036998658 0.100511536 0.10746775 0.10900883
000230 c9 86 cd bc 91 f4 ce 3d cc 39 da 3d 9c b4 48 bd
       -0.025088685 0.10105241 0.10655555 -0.049000368
000240 fe b2 0e 3e 6c d4 0f 3d c9 95 13 3e 4f da fb 3d
       0.13935468 0.03511469 0.14412607 0.122974984
000250 04 30 15 3d b1 ec 19 3e 6f 12 f1 bd 23 61 05 be
       0.036422744 0.15031697 -0.11771094 -0.13025336
000260 fd f5 0e 3e 9c 3d 00 be 9b be d4 bd cc 3d 29 3e
       0.13961025 -0.12523502 -0.103879176 0.1652748
000270 30 f2 41 3c 8a ff 28 3d 25 05 f4 3c d7 5b 9e bd
       0.011837527 0.041259326 0.02978761 -0.07732361
000280 0c cb 31 bd ab b1 24 3d 8c 57 fd bd d2 9c 2a 3d
       -0.04340653 0.0402085 -0.12370214 0.04165346
000290 6a b7 0f 3e 06 9e 8f 3c 8e eb 0e be dc 6c c9 bd
       0.1403481 0.017531406 -0.13957044 -0.098352164
0002a0 50 94 36 3d a4 40 e8 3c 29 30 a2 3d da ce 94 3d
       0.044575036 0.028351136 0.07919342 0.07266016
0002b0 73 ba 02 be 3f 88 f0 bd c4 ec ed 3d 7d 8f 93 3b
       -0.12766437 -0.11744737 0.11617425 0.004503189
0002c0 ab a2 44 bd 1c fa b8 bd e2 df c4 bd 64 1c d0 bc
       -0.048006695 -0.090320796 -0.09613015 -0.025404163
0002d0 49 fa c7 3b a8 bf 9e bd 84 35 14 3e e2 c2 b9 3d
       0.0061028344 -0.07751399 0.1447354 0.09070374
0002e0 8f 54 d8 bd b8 6d c5 3d 34 bf a4 bd c5 6b ae bd
       -0.10563003 0.09640068 -0.080442816 -0.08516649
0002f0 aa 30 52 3e 67 a8 09 3c 4e 8f 03 3e e6 1a e6 bd
       0.20526376 0.008401967 0.12847635 -0.11235599
000300 23 d9 07 3e ce 71 12 3e 28 cb cc bb b2 62 c1 bd
       0.13266425 0.14301226 -0.006249804 -0.09442653
000310 80 9b 75 3d ea 51 85 3d f2 21 1d 3d a3 8d 4c bd
       0.05996275 0.065097645 0.03836245 -0.049939763
000320 6f 7a 9b 3d dc 21 01 3e 50 ba a9 3d eb 66 17 3e
       0.07591712 0.12610573 0.082874894 0.14785354
000330 b1 f2 85 bd dd 9f 4c 3d 72 47 e4 bd 23 1e 9a 3c
       -0.0654043 0.049957145 -0.111464396 0.018813198
000340 e7 63 77 bc 60 3a 06 be 13 fe 8f 3d 7e f8 10 bd
       -0.015099502 -0.13108206 0.07030883 -0.03539323
000350 e9 6c 8b 3d f2 52 44 3d 3e 4c 83 bd a0 c3 1d 3d
       0.06807882 0.047930665 -0.064110264 0.03851664
000360 3f ef 7f b9 fe 15 8a bd 31 9b c8 3d 40 00 42 bd
       -0.00024407821 -0.06742476 0.097952254 -0.04736352
000370 96 9d 19 bd 53 9a 38 bd ec 48 be bc 27 dc 22 bc
       -0.0375038 -0.04506905 -0.023228131 -0.009940184
000380 f6 23 95 3d 3a 8d 0c 3d d9 e0 7c 3c fd 0b 23 3e
       0.0728225 0.03431437 0.015434467 0.15922542
000390 cb 1d 02 3e d7 82 77 bd d8 48 b7 3d a4 45 d6 bd
       0.12706678 -0.060427513 0.08949441 -0.10462502
0003a0 31 91 28 bd d1 83 50 bc 73 e6 8f 3d 38 fe b6 bb
       -0.04115409 -0.01272674 0.070263766 -0.0055845045
0003b0 c2 8d c2 3d d6 89 8d bd 0a ae 7d bd b7 c6 2d 3e
       0.094996944 -0.06911056 -0.061933555 0.16970335
0003c0 95 d6 77 3d 8d 1a b7 3d d6 8e b7 3d bd 2d 0b be
       0.060507376 0.08940611 0.08962791 -0.13591667
0003d0 7d af 11 bd 38 18 60 3d 60 9a e0 3d 39 76 15 3e
       -0.03556775 0.054710597 0.10966945 0.1459588
0003e0 84 61 a7 3d ae 48 ea 3d f9 b5 ce 3d 05 8f 82 39
       0.081728965 0.11439644 0.10093302 0.0002490209
0003f0 98 0d ea 3d 47 8b 81 3c 46 48 39 3e 04 84 ba 3d
       0.11428374 0.015813483 0.18093976 0.09107211

cnn_layers.4.bias f4 [8]
000000 d1 98 d7 bd 3c 28 b8 3c f1 d3 20 bd 9c 30 98 bd
       -0.10527194 0.022480123 -0.039264623 -0.074311465
000010 02 82 e5 3d 72 12 1e 3e b5 ad 11 3d 12 09 31 bd
       0.11206438 0.15436724 0.03556605 -0.04322154

cnn_layers.5.weight f4 [8]
000000 f1 8c 7b 3f 7a 56 81 3f 55 6c 76 3f 8a fa 7c 3f
       0.98261935 1.0104516 0.9625905 0.9881979
000010 e0 96 82 3f 28 5e 82 3f 88 7b 81 3f 99 b7 7d 3f
       1.0202293 1.0184984 1.0115824 0.9910827

cnn_layers.5.bias f4 [8]
000000 c5 f9 91 3c 05 e4 ba 3c ce 29 1b bc 27 bf 84 3c
       0.017819295 0.022813806 -0.009470416 0.01620443
000010 c1 2d 69 bc 8c 9f ca bc 89 b9 77 bc d7 22 33 3c
       -0.0142321 -0.024734281 -0.015119919 0.010933599

cnn_layers.5.running_mean f4 [8]
000000 ee 71 c8 3e 2b 0b 27 bf c4 b2 e7 be 1d 2a 14 3e
       0.3914942 -0.65251416 -0.45253575 0.1446919
000010 f8 ce 47 3e 1c 3d 09 3f cc 97 fe 3e de 27 cd 3e
       0.19512546 0.5360887 0.49725187 0.4006948

cnn_layers.5.running_var f4 [8]
000000 fa c1 b7 3e a5 1c b7 3e 76 2e 3f 3e e6 f4 89 3e
       0.3589018 0.35764042 0.18670067 0.26944655
000010 47 3f 30 3e 32 f7 4e 3e 45 ee 3f 3e 5c f1 08 3f
       0.17211638 0.20211485 0.18743236 0.53493285

cnn_layers.8.weight f4 [16, 8, 3, 3]
000000 5a 08 d2 bb eb 30 c1 3d 6f 4f db 3c 37 89 8f bc
       -0.006409687 0.094331585 0.026771275 -0.017521484
000010 cf 39 a3 3d 24 82 a7 bd cc 07 61 3d a5 96 d3 3d
       0.079700105 -0.08179119 0.054939076 0.103314675
000020 4e 85 80 3c 53 db 3f 3d 6b 15 84 3d 50 da a2 bd
       0.015688565 0.046840023 0.06449398 -0.07951796
000030 7f 9a e6 bd ad a8 97 bd 95 7d cd bd d1 fb 96 3b
       -0.112599365 -0.07405219 -0.100337185 0.0046076556
000040 c3 0a 91 bd ac 20 7b bc d8 e0 40 bd 15 f4 00 bd
       -0.07082131 -0.015327614 -0.047089428 -0.031482775
000050 7f 7b 8c bd 1a 5d 06 bd 88 8c 54 bd e4 c1 90 bd
       -0.068594925 -0.032803632 -0.051891834 -0.07068232
000060 7a 8c 57 bc 1e ca 4a bd 75 e6 fc bd 1b f0 34 bd
       -0.013156051 -0.04950916 -0.12348644 -0.044174295
000070 d5 44 ef 3d d8 8d 1a bd 8f 00 a0 3d da 0f d1 3c
       0.116830505 -0.03773293 0.078126065 0.025520254
000080 57 0b 1b bd 23 3b d4 3d ce bf b3 bd 50 f8 b9 bd
       -0.03785261 0.10362842 -0.08776818 -0.09080565
000090 93 69 a3 3d 18 30 e4 3d 04 08 1c be 9d 94 27 3d
       0.07979121 0.11141986 -0.15237433 0.040913213
0000a0 5c 69 c0 3d 37 9e 53 3d 2f 95 31 3d fc cc ed bc
       0.09395096 0.051664557 0.043355163 -0.029028408
0000b0 7d 1c 00 be 11 10 5a 3d f3 5a 28 3d d6 93 ba bd
       -0.12510867 0.05323798 0.04110236 -0.09110229
0000c0 86 64 ac bd db d6 da 3d f2 93 5f 3c 67 ff 75 3d
       -0.08417611 0.10685512 0.013646113 0.060058024
0000d0 02 9e 54 bc 3d 09 9f bd 20 17 9d bd 7e 89 0a 3d
       -0.012977125 -0.07765434 -0.07670426 0.03382253
0000e0 20 9f 70 bc 95 72 1b 3d 87 aa 87 bc db 01 cb bd
       -0.014686376 0.03795107 -0.016560806 -0.09912463
0000f0 df 98 80 3c 66 a6 13 bd 8c 78 d4 bc 0d b5 01 3d
       0.015697895 -0.03604736 -0.025936387 0.031666804
000100 3b 51 65 3c 94 c6 0c bd 6e c9 93 3d b5 be 38 3d
       0.013996418 -0.034369066 0.07216154 0.045103747
000110 06 9d 01 3d 43 ab d9 3c 1a 86 74 bd 5d 54 43 3c
       0.03164389 0.026570922 -0.0596982 0.011921969
000120 fa cc 8b bd 02 4f 5f 3d 9d 27 e9 bd a0 0c 12 bc
       -0.068262056 0.054518707 -0.11384509 -0.008914143
000130 a4 8f d9 3d 71 1e 9b 3c 42 db be 3d 24 9e c1 bd
       0.106231004 0.018935414 0.09319164 -0.09453991
000140 62 81 53 bd 1e be 51 bd e9 22 d0 3c c9 73 b2 bd
       -0.05163706 -0.0512067 0.025407271 -0.087134905
000150 7c 51 c8 3d 6a 33 14 3d 2c bd 37 3d 10 94 86 3c
       0.09781167 0.036181845 0.044858143 0.016428024
000160 b9 2e fe bd d6 f4 d4 3c 93 04 77 bd 94 43 71 3d
       -0.124112554 0.025995653 -0.060307097 0.05890234
000170 2e 19 27 3c b7 90 b9 3d 2d ce d8 3c ed 4c ca bd
       0.010198874 0.09060805 0.0264655 -0.09877954
000180 fb 14 73 3d c4 81 49 3d f0 b2 88 3d ea 42 e4 3c
       0.05934618 0.04919602 0.066747546 0.027863938
000190 c3 f2 a9 bd c5 2a f3 bd c9 64 8d bd 38 7e d6 37
       -0.08298256 -0.11873392 -0.06903989 2.5569563e-05
0001a0 d1 a0 c9 3d 2b d0 8e 3d af 1c 00 3d bc 2b c7 3c
       0.098451264 0.06973299 0.031277355 0.024312846
0001b0 ac 2d b6 3a 8b 97 c7 bd 00 99 7a bd 9c a0 83 3d
       0.0013899109 -0.097457014 -0.06118107 0.06427118
0001c0 69 19 f0 bd 36 2c e2 3c 16 0b 2b bd c7 79 23 be
       -0.117235966 0.027608972 -0.04175862 -0.15964423
0001d0 3e 34 dc ba c4 62 7d 3d 07 0b 42 bd 01 be 0a bc
       -0.0016800237 0.06186177 -0.047373798 -0.008468152
0001e0 e4 3a bc ba 50 6f 8c 3d 55 6c 8d bc 34 ad cf 3c
       -0.0014360812 0.06857169 -0.01726357 0.025351144
0001f0 6d 05 ef bd e3 bc 92 bd 7b 21 a9 3d 00 64 7b bd
       -0.11670957 -0.071649335 0.08258339 -0.061374664
000200 59 ce 76 3d 41 23 31 3b 8d c7 55 bd 07 8e d9 bd
       0.060255382 0.002702907 -0.05219226 -0.10622793
000210 e8 82 99 3d 81 54 87 bd 6e 57 bd 3d 4b a2 29 bd
       0.074956715 -0.06607915 0.092451915 -0.04141454
000220 eb 83 af 3d 59 a5 c1 3d 66 79 6b 3d 75 8e b5 3d
       0.08570083 0.09455366 0.05748882 0.08865062
000230 41 e3 31 bc e1 98 fb 3b 2d a4 db bd 70 56 55 bd
       -0.010857404 0.0076781367 -0.107246734 -0.052084386
000240 86 ba fc bd 89 19 a1 bd f6 67 ce 3d e5 0f c4 3d
       -0.12340264 -0.078661986 0.10078423 0.09573344
000250 d6 9d bd 3c 8f fe ba bd f1 50 09 bd 56 9a ee bd
       0.023146551 -0.091305844 -0.033524457 -0.11650531
000260 b1 9d 7f bd 22 da a2 bd 4b 42 0a bb 6c 79 35 bd
       -0.062406246 -0.07951762 -0.0021096643 -0.04430525
000270 d2 da 91 3d de 60 f9 bd a5 1b 9b 3d d9 19 5d 3d
       0.07121815 -0.12176679 0.07573632 0.05397973
000280 16 48 65 bc 5d cc b6 3d 97 fe 8d bb c2 2c 8d bc
       -0.013994237 0.08925698 -0.004333328 -0.017233256
000290 69 25 c2 bd 37 7c a9 3c e5 f8 31 3a 0e b3 49 3d
       -0.09479792 0.020689113 0.00067891023 0.049243025
0002a0 f3 a8 8f bd 2d c5 b2 3d 96 ae da bc 8b 12 bd 3d
       -0.070146464 0.087290145 -0.026694577 0.092320524
0002b0 b7 9c 80 bd 2a 7c dc 3d 19 01 91 bd 34 55 d5 bc
       -0.06279891 0.1076587 -0.070802875 -0.026041605
0002c0 b9 a2 bc 3c ca 41 bd bd 59 c3 96 bc e4 0d 23 3d
       0.023026811 -0.09241064 -0.018403696 0.03980817
0002d0 b4 8d de bd 0b 18 e4 bd e8 70 69 bd 7e 45 2b bc
       -0.108668715 -0.11137398 -0.05699244 -0.01045358
0002e0 0c ba ea bd 73 2e 8a 3d 98 fb 98 bd 7b d0 c7 3c
       -0.11461267 0.06747141 -0.07469863 0.024391403
0002f0 96 92 54 3d 68 80 9d bd 45 0d 50 bd e2 7c 8a 3d
       0.051897608 -0.07690507 -0.050793905 0.06762101
000300 1e 1a c0 bd a6 af bc bd 03 cf de 3b c2 7a 8e 3d
       -0.093799815 -0.0921319 0.00679958 0.06957008
000310 74 2b 04 be af 27 ee bd 3a e5 d0 bd 31 7b ca bd
       -0.12907201 -0.11628663 -0.101999715 -0.09886778
000320 e4 4f ba bd c1 5b e5 bd 0a 25 0b be bf a4 94 3d
       -0.09097269 -0.11199141 -0.13588348 0.07257985
000330 d9 8c 75 bd 1e cb 81 bd 28 35 c3 bd ca f2 43 3d
       -0.059948776 -0.0633757 -0.09531623 0.047838964
000340 4f 12 b9 bd 35 dd 2f bd 16 33 f8 3d 97 03 87 bc
       -0.09036695 -0.04293557 0.12119119 -0.016481204
000350 38 9c b6 bd 77 2f 88 bd 91 22 b6 bd 9b 42 4f ba
       -0.08916515 -0.06649678 -0.08893312 -0.00079063483
000360 cd 05 d7 3d dc 7d b5 bc 3c 39 2b bd 80 d6 64 bd
       0.10499153 -0.022154741 -0.04180263 -0.055868626
000370 01 13 3f 3d e4 1d 40 3d 6c e3 61 bd e7 9b f3 bd
       0.046648983 0.046903506 -0.055148527 -0.118949704
000380 76 6f a3 3d 5d 5c 12 3d c4 32 4a 3d a7 a5 37 3d
       0.07980244 0.035732616 0.04936482 0.044835713
000390 00 63 9d ba e4 6e ab 3d fd e2 01 bd ba 89 22 3d
       -0.0012007654 0.0837076 -0.031710614 0.039682128
0003a0 bb 6b 73 bd 00 b5 9b bd 43 3d 93 3d a9 40 47 bd
       -0.05942891 -0.076028824 0.07189419 -0.04864565
0003b0 e8 95 cb 3d 38 85 79 3c f4 d2 81 bc 12 89 de 3d
       0.09940702 0.015229516 -0.01584766 0.10865988
0003c0 47 2d 0e 3c 8f 0f 73 bd fb 68 ab bd a1 f9 ca bd
       0.008677787 -0.05934101 -0.08369633 -0.09910894
0003d0 33 1f e2 bd dc c3 af bd e0 e6 de 3d 4b b9 8b bd
       -0.11041107 -0.08582279 0.1088388 -0.06822451
0003e0 24 5c 92 3d 32 4d ab bd ce 85 1c bc 35 92 c8 3d
       0.07146481 -0.08364333 -0.009553386 0.09793512
0003f0 77 4f 85 bc 0d c4 9c bd 28 27 ac 3d 8a 6f ba 3d
       -0.016273243 -0.07654581 0.08405906 0.09103306

cnn_layers.8.bias f4 [16]
000000 03 67 73 3d a3 9b af bd ed 31 91 bd 23 d5 7a bd
       0.05942441 -0.08574607 -0.07089601 -0.06123842
000010 05 95 30 bd 85 20 82 bd 80 9f 16 bd f0 32 a1 3d
       -0.043110866 -0.06353859 -0.036773205 0.07871044
000020 08 77 df 3d 91 6f d3 bb 4b 17 41 3d 94 15 cf 3d
       0.10911375 -0.0064525087 0.047141355 0.101115376
000030 63 ae 77 3d 40 f3 a7 bd 89 18 71 3c 01 f9 8a ba
       0.060469043 -0.08200693 0.014715322 -0.0010602773

cnn_layers.9.weight f4 [16]
000000 9e 26 6f 3f 1f 0b 73 3f 79 fa 6f 3f 17 a1 70 3f
       0.934183 0.94938844 0.93741566 0.93995804
000010 6e 66 74 3f 01 af 6c 3f 20 80 71 3f 73 96 6b 3f
       0.95468795 0.92454535 0.9433613 0.9202644
000020 36 7b 72 3f 6d 71 73 3f f0 cd 71 3f a8 b8 70 3f
       0.94719255 0.9509495 0.9445486 0.94031763
000030 83 cd 71 3f e6 68 6d 3f ba e1 6c 3f 26 2a 72 3f
       0.9445421 0.9273819 0.9253193 0.94595563

cnn_layers.9.bias f4 [16]
000000 8e 58 2f bd 41 39 0f bd 79 7c 50 bd fe 31 55 bd
       -0.04280906 -0.03496671 -0.050899956 -0.05204963
000010 80 03 f8 bc 26 5e 69 bd 9d 5a 25 bd 98 f6 63 bd
       -0.030275106 -0.056974553 -0.04036962 -0.055655092
000020 3d 05 22 bd c5 9e 15 bd 0b 20 4e bd 52 36 63 bd
       -0.039555777 -0.036528368 -0.050323527 -0.055471726
000030 ce 84 56 bd df 3e 48 bd 00 fb 37 bd 8e 5c 25 bd
       -0.052372746 -0.048888084 -0.044917107 -0.04037147

cnn_layers.9.running_mean f4 [16]
000000 c4 7f 4a be 4a 2f 75 be 04 5a 86 bf b4 76 17 bf
       -0.19775301 -0.2394382 -1.049622 -0.591655
000010 75 1a 3b bf db 2d 31 3e 62 df 22 bf be 8f 63 3e
       -0.73087245 0.17302649 -0.63622105 0.22222802
000020 b7 fa 06 bf fa c2 dd be da 8a 54 be 34 07 8f 3d
       -0.5272631 -0.43312818 -0.20756093 0.06983796
000030 9e f0 7e be e6 1d 7d 3e c0 e0 52 3e e7 c0 09 bf
       -0.24896476 0.24718437 0.20593548 -0.5380997

cnn_layers.9.running_var f4 [16]
000000 88 51 37 3f dc 49 e1 3e 10 f1 ab 3f 80 8b 5b 3f
       0.7160878 0.44001663 1.3432941 0.85759735
000010 82 33 ee 3e 6a e1 76 3f e6 b8 d2 3e ea 12 0c 3f
       0.46523672 0.96437705 0.4115669 0.5471636
000020 21 cd 1e 3f 20 48 08 3f 99 c9 b3 3e 2a ca 32 3f
       0.6203175 0.53235054 0.35114744 0.6983973
000030 7b d3 ca 3e a8 47 31 3f 0e 77 5a 3f 06 90 c6 3e
       0.39614472 0.69249964 0.85337913 0.38781756

linear_layers.0.weight f4 [30, 1936]
000000 0c 68 5b 3c 46 a4 cd ba ad ad a8 3b 47 f6 19 bc
       0.013391506 -0.0015689216 0.005147657 -0.009397096
000010 72 bb f6 bb ae c8 b0 bc 90 37 49 3c cf 56 05 bc
       -0.0075296694 -0.021580067 0.012281314 -0.008138373
000020 9a 9e 89 bc 61 a0 ca bb 49 a5 6d bc 94 6f 72 bb
       -0.01679926 -0.0061836694 -0.014504739 -0.0036992775
000030 bd af a4 ba d2 d7 60 bb fc 33 81 3a 39 b6 00 3c
       -0.0012564581 -0.0034308326 0.0009857411 0.007855945
000040 7b d1 1c 3c d9 16 35 3c bd a5 33 bc 42 14 bc 3c
       0.009571428 0.011052811 -0.010964808 0.022958878
000050 02 e6 66 bc 51 c3 9b 3b d1 0c e5 bb e9 59 ed 3b
       -0.014092924 0.004753508 -0.006990053 0.007243384
000060 ef 1f 15 3b 64 47 76 bc 40 18 69 3c 03 6d 89 3c
       0.002275463 -0.015031669 0.014226973 0.016775614
000070 94 27 94 3c 41 3a a9 3a 9b 1c 19 3b 66 3b 13 bc
       0.018085279 0.0012911038 0.0023362997 -0.00898633
000080 97 9b c2 bb 72 74 1f 3a 6c 88 3e bc 56 c2 04 bc
       -0.005938958 0.00060827204 -0.011629205 -0.008102974
000090 5a dd be bc 99 21 8f 3b 7a 47 8f 3c 99 85 4c bc
       -0.023298908 0.004368019 0.017490137 -0.012483024
0000a0 9e 52 6c bc 90 9c dd bc 8a 46 08 3c 5d e6 80 3c
       -0.014423994 -0.027052194 0.008317599 0.015734846
0000b0 e5 a6 53 bc 15 6b a1 ba cc 0f f7 bb 76 f8 ab 3c
       -0.012918209 -0.0012315238 -0.007539725 0.020992499
0000c0 56 83 92 ba 4f d0 00 bc 33 26 6d 3c cc fb ba bc
       -0.0011178057 -0.007862165 0.014474439 -0.022825144
0000d0 81 34 a3 bc a8 77 62 bc ee 3d 70 bc 23 95 3d 3c
       -0.019922497 -0.013822474 -0.014663203 0.0115712015
0000e0 d4 2b 46 3c ad 37 03 bc 93 8c 4d bb b4 bd a2 bb
       0.01209541 -0.00800888 -0.0031364306 -0.004966462
0000f0 0e 23 cb 3b 38 9e 8b 3c 05 9a c8 bb 89 a4 2a bc
       0.006199247 0.017043218 -0.006121876 -0.010415205
000100 67 72 9a 3c 37 ce ac 3c 6e e3 b0 bc d4 80 12 3c
       0.01885338 0.021094425 -0.021592822 0.008941848
000110 1b ed 41 bb 2a 46 fc 3a 08 34 8a bb 06 36 47 bc
       -0.0029590789 0.0019246985 -0.0042176284 -0.012158876
000120 61 6e dd 3a 24 df aa 3c 5b 14 85 bc f3 cb 8d 3c
       0.0016893857 0.020858355 -0.016245058 0.017309165
000130 83 0c b2 bc 07 be 40 3b 06 85 33 bc 1b 4d 9f 3b
       -0.021734482 0.002941014 -0.010957008 0.0048614866
000140 20 e6 1e bc 70 10 b4 3b 2e 83 5a 3c d1 30 b2 bc
       -0.009698421 0.0054951236 0.01333694 -0.021751793
000150 9e f0 fb 3b 95 e2 38 bb e2 c7 44 3c dd 74 a8 3b
       0.007688596 -0.0028211225 0.012010546 0.0051408843
000160 1e 73 12 bc 7f 3d 18 bb 08 e9 65 3c 2b 6d 54 bc
       -0.008938579 -0.0023230014 0.01403261 -0.012965481
000170 c9 20 7d 3c a6 6e a8 3c 93 d5 45 bb 32 e9 44 3c
       0.015449711 0.020560574 -0.0030187115 0.012018489
000180 13 c4 0e 3c b3 75 72 bc 10 1a e6 bb b1 07 8b 3c
       0.00871374 -0.0147985695 -0.00702215 0.016971441
000190 1b b7 92 bc d5 0a 4a 3a 08 b3 a3 3c 9c c6 40 bb
       -0.017909577 0.00077073026 0.01998283 -0.0029415255
0001a0 a9 60 9e 3c 85 0e 23 bc 82 20 b1 bc 6c cb a8 bc
       0.0193332 -0.009952192 -0.021621946 -0.020604812
0001b0 f2 9c 6b 3c 39 46 85 3b 7e b1 9c bb 45 69 6b 3c
       0.01438068 0.004067209 -0.004781901 0.01436836
0001c0 51 6f 02 3c 35 80 d1 bb 48 89 9f bc 7d 95 ae 3b
       0.00796111 -0.0063934573 -0.01947464 0.005327879
0001d0 cd ec 54 bc 9e e1 63 bb 39 01 d1 3b e6 16 87 bc
       -0.012995911 -0.003477193 0.0063783196 -0.016490411
0001e0 54 8e 80 bc 6d 5c 8d bc 44 31 15 3c a0 b9 a2 3b
       -0.015692867 -0.017255986 0.009105984 0.004965976
0001f0 66 de ab 3c c0 c8 24 bc 33 80 82 bb b1 df 44 bc
       0.020980071 -0.010057628 -0.0039825677 -0.012016223
000200 61 88 c5 bc cb a7 45 bb 4f 1c b9 bc 21 d9 39 3c
       -0.024112882 -0.0030159827 -0.022596506 0.0113432715
000210 97 ad 2d ba 11 fb 93 3c 4a e5 34 3c 87 98 58 bc
       -0.0006625293 0.018064054 0.011040995 -0.013219959
000220 46 8e 88 3c 84 f4 a3 3a f7 21 ad 3c e6 53 af bc
       0.016669404 0.0012508784 0.02113436 -0.02140231
000230 32 21 16 3a a6 d8 a7 3c 32 b7 82 3c e1 be 9a bc
       0.00057269924 0.020489048 0.015956495 -0.018889846
000240 1d c5 cc bb ae 08 7c bb e2 20 a9 bb 92 a6 5c bc
       -0.0062490837 -0.0038457322 -0.0051613906 -0.013467448
000250 84 35 2f 3c 8a e4 80 bc a9 f1 ac 3c a0 2b 8b bc
       0.010693911 -0.015733976 0.021111326 -0.016988575
000260 f8 21 36 3b f4 15 a0 bc 24 07 9b 3c 9d 53 87 ba
       0.0027791243 -0.019541718 0.018924303 -0.0010324601
000270 e9 ed 4a 3c 92 c7 b1 ba 12 1d 60 3c f4 06 e1 bb
       0.012385824 -0.0013563505 0.013678806 -0.006867284
000280 c3 20 9b 3b e4 09 af bc d0 8a 4d 3c 3c b3 ef 3b
       0.00473413 -0.02136702 0.0125453025 0.0073150676
000290 4a a0 a8 bc ce 56 a3 3c ad f8 23 3c a1 e7 57 3c
       -0.020584244 0.019938853 0.010008019 0.013177783
0002a0 4c 65 e7 bb 97 f5 6b 3c ac 6c 44 3c 82 40 18 39
       -0.007061636 0.014401815 0.0119888 0.0001451988
0002b0 60 c7 91 bc 18 22 31 3c de 56 97 bc 1a 8b 22 3c
       -0.017795265 0.010811351 -0.018474039 0.00992086
0002c0 2a ba 23 3b cb f3 21 3b 59 a5 ad bc 9c 2f c5 bc
       0.0024982789 0.0024711962 -0.021197008 -0.024070553
0002d0 86 14 8c bc be e3 c3 ba 9e 98 08 bb 51 45 5a 3b
       -0.01709963 -0.0014945192 -0.002084292 0.0033305476
0002e0 72 ff c3 3b 6b 47 4b 3c 14 94 f9 ba 1c 3e f0 3b
       0.005981379 0.012407164 -0.0019041323 0.0073316228
0002f0 64 cc 6d 3c 1f 57 dc bb db ae b2 ba 8a aa 85 3c
       0.014514063 -0.006724253 -0.0013632433 0.01631667
000300 c8 b5 5b 3c 42 7c 36 3c c0 e3 82 3c fb 27 16 3a
       0.013410039 0.011138024 0.01597774 0.00057280035
000310 4a a8 28 3a 67 f0 b6 3b fa 24 eb 3b 6e cd a1 bc
       0.00064337684 0.0055828574 0.007176039 -0.019751277
000320 6a 8b 47 bc 22 40 3f 3b e3 d6 98 3c 4a 92 2f 3c
       -0.012179235 0.0029182513 0.018657153 0.01071603
000330 9c 91 44 3b 57 b4 a2 ba 4c 5c 4d 3c 8d 67 37 3c
       0.0029994017 -0.0012413365 0.012534212 0.011194122
000340 24 22 ed ba b9 2e 41 bc 66 66 7a 3c 32 45 8a 3c
       -0.001809184 -0.011790925 0.015283203 0.016878698
000350 6f 06 a2 3b 77 f3 e0 3b 53 53 ca 3b 72 43 07 3b
       0.0049446146 0.006864961 0.006174484 0.0020639566
000360 93 fa 40 bb 16 56 c6 bc 1f de 0f bc 3d f1 1c bc
       -0.002944623 -0.02421097 -0.008780985 -0.009579
000370 e5 6c 99 bb a0 35 a2 bc 34 70 a8 bc 19 ec 8d 3b
       -0.0046821707 -0.019800961 -0.020561315 0.0043311235
000380 1f 50 7a bc 95 ac e9 bb af 86 63 bc 0c 16 c8 bb
       -0.015277891 -0.007131169 -0.013887092 -0.006106144
000390 78 89 05 3c 5f 02 50 3b 41 13 b5 3b 78 22 89 bb
       0.008150451 0.0031739695 0.005525977 -0.004185017
0003a0 a8 35 06 3b 76 72 e8 bb 2b b2 b9 bb ad be c8 3a
       0.002047876 -0.007093723 -0.005666991 0.0015315615
0003b0 84 4a 8f 3c be f2 44 3c 29 34 11 bb 05 70 4e bb
       0.017491587 0.012020765 -0.0022156334 -0.0031499874
0003c0 e7 c8 ab bc 7e 05 0d 39 f1 1e c4 ba 89 3d 4d bc
       -0.020969821 0.00013448854 -0.0014962835 -0.012526878
0003d0 66 3a 80 3a 5c 04 44 bc 45 49 34 bc 3b 6b 07 3c
       0.0009783029 -0.01196393 -0.011003797 0.008265312
0003e0 41 53 87 bc 9b 5c 55 3c 05 58 cb bb 38 df 94 b9
       -0.01651919 0.013022567 -0.006205561 -0.0002839507
0003f0 9f 00 92 bb e6 75 12 bc 8f e4 b7 3c 2e e4 52 bc
       -0.0044556404 -0.008939242 0.022447852 -0.012871785

linear_layers.0.bias f4 [30]
000000 c9 f2 4a 3b 67 59 00 3c 09 fa 50 bc 6b a3 9e 3c
       0.0030967465 0.007833815 -0.0127549255 0.019365033
000010 72 2d 82 bc 07 02 7a ba 15 24 69 bb 53 2f b7 bc
       -0.01589081 -0.0009537045 -0.0035574485 -0.022361433
000020 4e 82 0d 3c 04 70 40 3c 2b f5 c2 bb 62 74 8c 3a
       0.008637024 0.011745457 -0.0059496365 0.0010715837
000030 ec 08 84 3c 1d 44 ac bc 84 03 33 bc f2 56 28 bc
       0.016117536 -0.021028573 -0.010926131 -0.010274636
000040 51 51 3f 3c 41 b4 46 3c 09 a8 f0 ba a8 4a 67 3c
       0.011677102 0.012127937 -0.0018360625 0.0141169205
000050 00 14 c8 37 d2 bf 33 3c aa 4d 80 bc e8 01 3e 3b
       2.3851171e-05 0.0109710265 -0.015662033 0.0028992835
000060 f1 5c 8f 3c 59 3c 2e bc f6 7e a9 bb 3e 04 4d 3b
       0.017500373 -0.010634505 -0.0051726056 0.0031283046
000070 bb d1 85 3c ad 47 a9 ba
       0.016335359 -0.0012915038

exp_avg f4 [4, 1, 5, 5]
000000 d8 19 ad ba 21 41 fc 39 5a da 49 3a 32 fc 0e ba
       -0.0013206555 0.0004811371 0.00077000784 -0.000545445
000010 9f c1 2f 3b 40 d8 88 3a cc d8 5d 3b 73 e3 41 3b
       0.0026818288 0.0010440424 0.0033851145 0.0029585033
000020 85 d5 37 3a 2d 98 4b 3b 51 1b 43 3a 4a 12 50 3b
       0.0007012713 0.0031066046 0.000744273 0.0031749182
000030 f4 2b 4b 3b 48 85 58 b9 2b a7 01 3b 17 ae 03 3b
       0.003100154 -0.00020649016 0.0019783478 0.002009278
000040 56 41 6e 3b 8a 77 4f 3b 15 a7 b3 3a 95 bf 48 3b
       0.0036354861 0.0031656944 0.001370641 0.003063177
000050 9b ef 45 3b 82 61 58 3b 6b 83 20 3b 21 0e 17 3b
       0.003020263 0.0033017104 0.0024492394 0.0023049193
000060 10 9f a0 3b e7 26 f5 39 cb 80 0c 3a 97 5f a0 39
       0.004901774 0.00046759026 0.0005359768 0.00030588798
000070 29 c7 05 ba 5b 60 01 ba 74 9d 47 39 ac c3 f3 39
       -0.00051032245 -0.00049353176 0.00019036775 0.0004649436
000080 16 56 39 39 ed f8 25 ba a2 2c 16 ba 96 61 fc 38
       0.00017675044 -0.00063313433 -0.00057286967 0.00012034473
000090 0e 86 0b 39 b5 59 ba b9 66 cc 97 ba 70 a4 2a ba
       0.00013306012 -0.00035543522 -0.0011581301 -0.00065094884
0000a0 86 1d 96 b9 05 3d 88 b9 30 9e ab b9 51 c5 9a ba
       -0.00028632226 -0.00025985404 -0.0003273352 -0.0011808072
0000b0 a3 21 63 ba a0 c8 9a b9 93 bb 89 b9 89 7e 87 b9
       -0.0008664375 -0.00029522646 -0.0002627043 -0.00025843483
0000c0 fe 3f 4b ba 10 0f e0 b9 0c df c0 3a 3f a5 66 3b
       -0.0007753371 -0.00042735832 0.0014714911 0.003519371
0000d0 6b 3b ae 3b da af c2 3b df 43 02 3c d0 9e d8 3a
       0.005317142 0.0059413733 0.007950752 0.0016526822
0000e0 db 38 30 3b 3a 41 80 3b 91 16 95 3b 42 7a d0 3b
       0.0026889357 0.0039140256 0.0045498093 0.0063622305
0000f0 4e ec df 3a e6 56 14 3b 92 89 18 3b 7e 72 22 3b
       0.0017083974 0.0022634803 0.0023275358 0.002478748
000100 7e 00 92 3b 2e b5 03 3b 30 b2 3c 3b ab 45 34 3b
       0.004455625 0.0020097005 0.0028792731 0.0027507346
000110 92 52 c3 3a 93 e7 89 3b f2 be b4 3a 00 43 05 3b
       0.0014901927 0.004208514 0.0013789816 0.0020334125
000120 9c 9d c4 3a 03 54 0e 3a 96 37 2c 3b 0a c4 bf 38
       0.0015000585 0.0005429389 0.002627825 9.144105e-05
000130 8a 1a 8f 37 c9 41 80 b9 ca 50 0b ba b9 ac ad b9
       1.7059287e-05 -0.00024463076 -0.00053144677 -0.0003312582
000140 07 bc 90 39 c4 25 8d 39 6e 3e 8d b8 34 fe 0b b9
       0.00027605912 0.00026921753 -6.7350324e-05 -0.00013350771
000150 26 82 40 39 8c a8 87 38 c2 ac a7 39 e3 21 73 39
       0.00018359031 6.468696e-05 0.00031981437 0.0002318691
000160 62 6f 80 38 c2 89 12 39 c6 2a 2f 37 90 bd be 38
       6.124262e-05 0.00013974964 1.0440772e-05 9.095215e-05
000170 7a c0 33 b8 f2 ab c7 b7 ef c9 61 39 c2 4e 1a ba
       -4.2856183e-05 -2.3802717e-05 0.00021532898 -0.00058863696
000180 19 57 3a b9 58 9f b4 b8 99 85 9c b9 ad f0 80 b8
       -0.00017770789 -8.612749e-05 -0.00029854177 -6.148345e-05

exp_avg_sq f4 [4, 1, 5, 5]
000000 83 bc f1 39 9b 20 e5 39 e4 45 e4 39 f6 2c d5 39
       0.00046107554 0.00043702577 0.0004353962 0.00040660024
000010 83 b5 33 39 a6 fe c9 39 e9 fe bd 39 3c 95 ab 39
       0.00017138389 0.00038527435 0.00036238812 0.0003272685
000020 ba d1 a0 39 77 c3 d9 38 1b 1b b6 39 71 19 ab 39
       0.00030673837 0.000103837745 0.0003473394 0.00032634617
000030 9f 50 9e 39 35 8c 8f 39 f6 f6 dc 38 37 1a 9d 39
       0.00030196176 0.00027379548 0.000105364175 0.00029964905
000040 c6 98 91 39 f4 e8 94 39 13 6c 86 39 ae 8c 1d 39
       0.0002777038 0.00028402323 0.00025638993 0.00015025094
000050 12 2a 97 39 9c 5f 96 39 9e 77 8d 39 19 33 85 39
       0.0002883231 0.00028681464 0.00026982737 0.00025405808
000060 29 cc 40 39 08 94 d1 38 7b 3e c5 38 73 a6 a0 38
       0.00018386602 9.9934696e-05 9.40533e-05 7.660398e-05
000070 9d 96 79 38 aa 4e 70 38 40 49 8f 38 f8 74 7d 38
       5.9506496e-05 5.729372e-05 6.832415e-05 6.0428836e-05
000080 78 2c 6a 38 e0 7e 55 38 74 f2 66 38 5b 37 70 38
       5.5831362e-05 5.090132e-05 5.5062075e-05 5.7272013e-05
000090 fe 11 74 38 9f 47 7e 38 d4 85 97 38 49 4f b8 38
       5.819089e-05 6.062502e-05 7.2251685e-05 8.788572e-05
0000a0 c3 4b a1 38 87 3c 5e 38 5d 08 52 38 c1 38 b4 38
       7.69119e-05 5.2985295e-05 5.007569e-05 8.59364e-05
0000b0 f6 3a 03 39 78 94 ba 38 5b fb 65 38 d5 a2 67 38
       0.00012515098 8.8968256e-05 5.4831948e-05 5.522634e-05
0000c0 24 d5 ca 38 4e 6c 0b 39 66 7c 25 39 cc 08 19 39
       9.671811e-05 0.0001329642 0.00015781968 0.00014594494
0000d0 79 16 1c 39 88 02 33 39 eb b4 b3 39 07 f4 13 39
       0.00014885691 0.00017071713 0.00034276335 0.0001410992
0000e0 2b f4 12 39 88 3c 2d 39 93 80 5f 39 7d c5 ae 39
       0.00014014605 0.00016521115 0.00021314835 0.00033335006
0000f0 7a 85 3c 39 aa 71 39 39 6a 28 66 39 c8 5f 99 39
       0.00017978801 0.00017685318 0.00021949565 0.00029253797
000100 27 c0 b9 39 f0 96 55 39 95 56 5b 39 06 06 85 39
       0.00035429114 0.00020369492 0.00020917722 0.00025372225
000110 78 ae b0 39 10 c1 b9 39 65 de 77 39 f0 00 86 39
       0.00033699325 0.00035429792 0.00023638604 0.0002555917
000120 f2 b4 94 39 be a9 a6 39 91 df b7 39 f1 33 37 38
       0.00028363575 0.00031788455 0.0003507105 4.3678974e-05
000130 f6 ff 09 38 a6 20 04 38 8f 5e 25 38 cc 05 5f 38
       3.2901728e-05 3.150166e-05 3.942713e-05 5.3172742e-05
000140 0f 3f ab 37 0e b5 e6 36 54 98 09 37 41 b3 b6 37
       2.0414152e-05 6.8756117e-06 8.201303e-06 2.1779562e-05
000150 16 84 17 38 8b 74 c4 37 b4 8d 11 37 dc 21 5c 37
       3.612422e-05 2.341929e-05 8.675666e-06 1.3120905e-05
000160 22 3f c5 37 d0 47 0e 38 70 79 21 38 0d 8d c4 37
       2.3513629e-05 3.392232e-05 3.849849e-05 2.3430703e-05
000170 13 77 c6 37 44 cc 1d 38 b9 e7 55 38 b9 dc 6d 38
       2.3658888e-05 3.7621954e-05 5.0998966e-05 5.6710767e-05
000180 85 6a 22 38 60 50 10 38 e0 fa 3b 38 4f 02 59 38
       3.8723014e-05 3.440713e-05 4.481792e-05 5.173898e-05

exp_avg f4 [4]
000000 b5 c2 f9 b2 d7 5c c3 31 9e de 9c b1 3f a8 c9 31
       -2.9075958e-08 5.6858016e-09 -4.565506e-09 5.8689973e-09

exp_avg_sq f4 [4]
000000 0d c3 08 2a 8a 05 89 28 cd 4a 20 29 18 09 05 29
       1.2146898e-13 1.5212458e-14 3.5592016e-14 2.953982e-14

exp_avg f4 [4]
000000 e2 8a 1b 38 e3 91 53 b8 18 01 a4 39 c3 36 89 b9
       3.7084224e-05 -5.0442188e-05 0.00031281332 -0.00026171477

exp_avg_sq f4 [4]
000000 dd 39 db 37 ad a8 a0 37 a4 4d 27 38 ee 4a 04 38
       2.613378e-05 1.9152032e-05 3.988821e-05 3.1541036e-05

exp_avg f4 [4]
000000 5f 99 82 3a 8b e0 1e ba 8f 5f 42 39 c4 18 1b ba
       0.0009963921 -0.0006060681 0.0001853688 -0.0005916471

exp_avg_sq f4 [4]
000000 68 bb bf 37 c5 d3 9b 37 12 52 c0 37 a0 fe c5 37
       2.2856242e-05 1.8576053e-05 2.29264e-05 2.3602799e-05

exp_avg f4 [8, 4, 3, 3]
000000 88 ce 55 39 fe de c5 b8 43 4d 01 3a 57 a1 8d b9
       0.00020390202 -9.4352275e-05 0.00049324724 -0.00027013823
000010 39 5b ac b8 e2 aa 76 3a 3b ab 92 ba 9e e9 18 ba
       -8.218591e-05 0.0009409619 -0.0011189947 -0.00058331515
000020 bc fd 90 38 f9 43 91 b9 26 57 4c b9 78 e6 1e ba
       6.913717e-05 -0.000277072 -0.00019487421 -0.0006061564
000030 66 79 15 b9 95 f9 12 ba 5a dc 83 ba e3 9e 42 ba
       -0.00014254972 -0.00056066486 -0.0010060177 -0.00074241887
000040 0c 6f 83 ba 7d e8 9e ba e9 bf d7 39 60 9f 99 3a
       -0.0010027601 -0.001212373 0.0004115098 0.0011720471
000050 5d a5 b9 3a da 81 20 38 a6 60 2f 3a ea dc 15 3b
       0.0014163662 3.8267906e-05 0.0006690122 0.002286727
000060 d9 57 23 b9 08 fb 15 3a 50 af 9b 3a cc 97 91 b9
       -0.00015577617 0.00057213055 0.0011877809 -0.00027769653
000070 c8 6a b0 b8 19 81 15 ba 9e 09 23 ba 5e 09 fa b9
       -8.4122235e-05 -0.0005703136 -0.00062193896 -0.00047690695
000080 81 b3 4e ba b4 aa 83 ba e2 75 99 ba 6a 44 a3 ba
       -0.00078850245 -0.001004538 -0.0011708105 -0.0012456302
000090 98 f6 a3 b9 fc 7e 20 b9 16 1f 0e 39 9e 4d 7f b9
       -0.0003127351 -0.00015306094 0.00013553756 -0.0002434761
0000a0 7c f9 28 38 ed a6 82 39 71 9e 26 ba 07 de c3 b8
       4.028667e-05 0.00024919902 -0.0006356007 -9.3396804e-05
0000b0 23 da b2 b9 22 e6 4d 39 4c 6c e0 38 27 dd 7a b8
       -0.0003411333 0.00019636055 0.00010701324 -5.981061e-05
0000c0 99 cb c0 38 d7 c8 f5 b8 5a 77 1e b9 2d 25 1f 38
       9.1931965e-05 -0.0001171992 -0.00015112516 3.7943177e-05
0000d0 9d fe 92 b9 03 63 21 b9 4b ed 42 39 19 47 16 39
       -0.00028036992 -0.00015391041 0.0001858968 0.000143316
0000e0 6c 45 ae 39 81 f3 01 ba dd 15 c0 38 1a e6 1f 39
       0.0003323959 -0.00049572444 9.159346e-05 0.00015249141
0000f0 d2 6a 4a 37 b2 36 49 3a 3a f6 4d b8 d0 fe d9 b8
       1.2065009e-05 0.0007675692 -4.9105125e-05 -0.00010394829
000100 1d 22 5f b9 6a 24 b0 b8 80 f1 df b8 bd 77 80 b9
       -0.00021279645 -8.3991166e-05 -0.000106784515 -0.00024503274
000110 63 e2 32 b9 6f 00 5f 38 3f ff 91 b9 de c0 67 b9
       -0.00017059738 5.3167747e-05 -0.00027846728 -0.00022101725
000120 c6 ae 18 b9 d2 b3 b6 39 5c 42 e0 39 4d f9 00 ba
       -0.00014560958 0.00034847722 0.0004277405 -0.0004919961
000130 8b ab b9 38 5b 85 ef 39 3c 51 43 b9 ad 60 6f 39
       8.85344e-05 0.0004568499 -0.00018626911 0.0002282883
000140 66 59 90 b8 e7 d7 3a 3a a9 2f 53 3a a7 a3 36 3a
       -6.883107e-05 0.0007127509 0.0008056113 0.0006967135
000150 ba 37 e0 39 9a f3 10 3a 43 56 05 3a 7b d4 b9 39
       0.0004276613 0.00055294635 0.00050864014 0.0003544426
000160 a3 76 94 3a 89 a1 7f 3a f2 52 90 ba 7d 96 bb ba
       0.001132686 0.00097515486 -0.0011011048 -0.0014311817
000170 c7 b6 be ba 0d 92 87 ba 97 d5 5c ba 44 df 57 ba
       -0.0014550322 -0.0010343209 -0.00084241614 -0.00082348683
000180 c8 5c 58 ba 3f 80 95 ba d2 1b d6 ba ac 6e 89 39
       -0.00082535716 -0.0011406018 -0.0016335195 0.00026213133
000190 16 41 06 3a dd 28 46 3a 9f ed 3e 39 fd f0 fd 39
       0.0005121393 0.00075591897 0.00018208333 0.0004843547
0001a0 9f 99 e3 39 4c 8d 5f 3a e5 3a 90 3a 51 8e 6a 3a
       0.0004341127 0.000852783 0.001100388 0.00089475984
0001b0 0b 1b 88 39 2f 8b 04 3a 7d 52 b8 b9 39 73 e6 39
       0.0002596009 0.00050561404 -0.00035156673 0.00043954866
0001c0 fd 8a 15 3a da 20 38 ba fb fb b6 b8 a9 89 3f 3a
       0.000570461 -0.0007023938 -8.725371e-05 0.0007306585
0001d0 b0 29 19 ba d3 50 34 ba f1 bd 05 b8 b3 08 b8 38
       -0.0005842699 -0.0006878499 -3.1886568e-05 8.775424e-05
0001e0 bb f4 a4 b9 80 e3 b4 38 33 a4 ed 38 4a 9c 96 36
       -0.00031462856 8.625444e-05 0.00011331625 4.488543e-06
0001f0 4e d6 11 39 86 8b 37 39 89 41 85 39 58 38 e0 b9
       0.00013908112 0.00017504217 0.00025416564 -0.0004276659
000200 af f3 28 ba d1 4b fc 39 31 2b 51 b9 87 b8 37 ba
       -0.0006445003 0.00048121673 -0.00019947883 -0.0007008393
000210 87 87 ba b8 3d f5 19 3a f0 48 a6 ba 4a 0b 50 b9
       -8.894415e-05 0.000587303 -0.0012686532 -0.00019840631
000220 b2 83 0a 39 31 66 bc 39 b5 33 a3 b9 87 65 4d 39
       0.00013209766 0.00035934293 -0.00031128307 0.00019588145
000230 81 20 d9 39 88 db b1 b9 ef 76 a4 36 73 d2 b9 39
       0.00041413683 -0.00033923634 4.9014266e-06 0.00035442747
000240 90 10 15 3b f1 2f 1e 38 ee f9 23 ba 3f d9 6b 3a
       0.0022745468 3.7714784e-05 -0.0006255199 0.0008996911
000250 7e 7f 20 ba 49 c7 25 b8 ea 6c 9d ba 41 cc 55 ba
       -0.00061225134 -3.9524664e-05 -0.0012010608 -0.00081557414
000260 e8 7a 97 b9 31 90 ab 3a 38 a8 9c 3a 0d 2d 56 3a
       -0.00028892537 0.0013089237 0.0011951989 0.0008170165
000270 42 64 1e 3b 47 15 d4 3a e2 34 83 3a 22 7f ce 3a
       0.0024168645 0.0016180658 0.0010010267 0.0015754441
000280 62 a2 19 3a e7 ba 4f 39 6e 20 2f 3a f4 1f 2f ba
       0.0005860684 0.00019810685 0.00066805526 -0.00066804816
000290 9a 1a 13 bb e1 97 58 ba d1 f6 e8 ba 5c 17 26 bb
       -0.0022446276 -0.0008262378 -0.0017773752 -0.0025343513
0002a0 99 69 29 bb 73 82 b7 ba ba af 61 ba fd f8 b1 3a
       -0.0025850295 -0.0014000669 -0.0008609254 0.0013578233
0002b0 9b a6 a7 3a 71 7c 6b 3a f3 47 c6 3a 0d 65 89 3a
       0.0012790741 0.0008983082 0.0015127644 0.0010482386
0002c0 79 06 62 3a 29 6c 9e 3a 79 be 0d 3a 09 d6 23 37
       0.00086221803 0.0012086678 0.0005407106 9.765391e-06
0002d0 63 ba 06 ba ea 1d c0 ba f1 a6 df ba 41 02 0c 3a
       -0.0005139468 -0.0014657353 -0.0017063302 0.0005340912
0002e0 ed 35 07 b7 88 61 a3 ba 83 00 2c b8 31 f8 26 36
       -8.059183e-06 -0.001246498 -4.1008472e-05 2.4880394e-06
0002f0 26 23 01 bb 89 5a fd b9 e3 9a 6d ba 57 c3 44 ba
       -0.0019704788 -0.00048323374 -0.00090639124 -0.00075059145
000300 d7 64 ab b9 ea 83 8c 39 34 35 57 3a 55 59 11 3a
       -0.00032690793 0.00026801164 0.0008209527 0.00055446225
000310 d6 37 ac 3a 10 0e b4 3a 78 0c 8c ba ae 39 c4 ba
       0.0013139199 0.0013737101 -0.0010684868 -0.0014970803
000320 18 9f d9 39 43 dc 86 3a 65 92 6e 3a 42 0e e3 39
       0.00041508 0.0010289032 0.0009100794 0.00043307437
000330 c9 25 00 ba a2 95 5a ba be 9c 46 ba e0 36 bd b9
       -0.0004888443 -0.0008338337 -0.0007576457 -0.00036089774
000340 2f 17 84 b9 15 f8 09 ba fd 5b 93 39 a5 bf 0d 3a
       -0.00025194275 -0.00052631024 0.00028106562 0.00054072804
000350 e0 a2 15 3a b9 82 2f 3a b6 c3 97 3a dc 55 c8 3a
       0.0005708169 0.00066951994 0.0011578712 0.0015284377
000360 1a b1 d9 ba 3c 3a 8c 39 59 96 d6 ba 5f e9 11 bb
       -0.0016608567 0.0002674627 -0.0016371711 -0.0022264344
000370 e5 15 87 b9 56 a9 30 ba 17 ca 07 bb ff 76 37 ba
       -0.0002576552 -0.00067391 -0.002071982 -0.0006998628
000380 c2 e9 66 ba a3 a2 3e 3a 1b 94 20 b9 e0 df f3 b9
       -0.00088086363 0.00072721596 -0.00015313963 -0.00046515372
000390 63 8b 8b 3a 6a 0e a3 39 8d 33 13 ba 59 8d 40 3a
       0.0010646399 0.00031100522 -0.00056152866 0.0007345281
0003a0 52 4a 03 ba 6e fa d8 b9 44 8a 3e ba 64 45 8e 3a
       -0.0005008328 -0.00041385315 -0.0007268528 0.001085442
0003b0 94 0f e2 37 14 c3 1c bb 51 6f 73 ba e7 c7 61 b9
       2.6948554e-05 -0.0023919987 -0.0009286302 -0.00021532142
0003c0 a1 a8 24 bb 40 df 05 38 a5 f4 c8 39 37 4f 8c 39
       -0.0025124925 3.191759e-05 0.00038329247 0.000267619
0003d0 47 93 a0 b9 18 02 11 b8 17 dd 3a 3a 87 c7 d4 b9
       -0.00030627308 -3.4572644e-05 0.0007128282 -0.0004058445
0003e0 86 c3 3d ba bd dc 94 3a a8 0c b1 b8 32 39 26 ba
       -0.0007238913 0.0011357289 -8.442375e-05 -0.000634092
0003f0 a1 ac c5 39 cd ef 85 39 fc 23 a3 b9 0d 2e 46 b9
       0.00037703387 0.00025546402 -0.00031116593 -0.00018899907
