Facical Keypoints /lightning_logs/cĺs_logs/version_13/checkpoints/epoch=9-step=7730.ckpt (torch, 734345 bytes, 48 tensors)

cnn_layers.0.weight f4 [4, 1, 5, 5]
00000000: c6dd 1bbe 81c8 b4bd ce64 123e 09ee c73c
00000010: 35f8 04be 374f 423e 73b5 5e3d 5bff 51bd
00000020: e278 383e 9082 1dbe cde2 9cbd 7fcb eebd
00000030: f4fa f93d 41eb f1bc 025e 43be 036d b03d
00000040: 6205 123e 44a8 64bd 5943 2c3e 4420 30bd
00000050: 663f d8bd b787 fabc 340e 6abd f5f6 103e
00000060: d33d 4bbe 8dec 463e 3d06 d93d a99e f8bd
00000070: d5e7 c53d f0ab 44be 9adc 1dbe d9dc 43be
00000080: 6981 38bd 527a eabc 83e2 7cbe 80e5 0cbd
00000090: a506 2c3e 2eb8 e8bd 0c32 643e ef8d 0bbe
000000a0: 9d70 86bd 859b 2bbc b53e 2ebe f47d 583e
000000b0: b241 c03d 7f78 2e3e f3be ffbc 2de5 10be
000000c0: 1c21 6a3d 950e 9f3d b4d7 e63d d0f6 02be
000000d0: ce44 f73c 0b95 373e e2be 03bb 8bb9 a43c
000000e0: 2abc 063e 74fd 88bc 0521 573e c519 57be
000000f0: 6bc3 25be 6cf4 dd3c b639 22be 8fad 843d
00000100: c5b3 f3bd 513a d63d 3bd4 ba3d b18f b13d
00000110: 08d3 a7bd 4356 19be 24f8 9bbd 441c a4bb
00000120: eb8d 13be 4112 633e c230 58bd 150a b33d
00000130: 0c9a a53d 72fc c0bc a727 72be 3503 3d3d
00000140: cbd2 f7bc 21df 14be 5217 21be 6e81 8a3d
00000150: 4ef2 bd3d 7fa5 f6bd d0fb 32be 06a3 a9bb
00000160: 28c2 3dbe 5399 2abe c878 433e 78e2 ed3d
00000170: 9806 28be b389 8d3d afa8 e83d 5ffb 8d3d
00000180: 4ccf 0cbc 6de1 12be 2794 e9bb 2239 ccbd
-0.15221319 -0.088273056 0.14296266 0.024405496 -0.12985308 0.1897553 0.054372262 -0.051268917
0.18014863 -0.15381837 -0.07660446 -0.116599075 0.12206069 -0.029531123 -0.1907883 0.08614542
0.14259866 -0.055824533 0.16822566 -0.04299952 -0.10558967 -0.030582292 -0.05714245 0.14156707
-0.19847803 0.19426174 0.10596893 -0.12139637 0.09663359 -0.19206214 -0.15416184 -0.19127215
-0.04504529 -0.02862278 -0.24695782 -0.034398556 0.1679941 -0.113632545 0.22284716 -0.13628362
-0.06564448 -0.01047409 -0.17016108 0.21141797 0.093875304 0.17038153 -0.031218981 -0.14149924
0.05716048 0.07766453 0.11271611 -0.12789464 0.030184176 0.17927949 -0.0020102789 0.020108005
0.13157716 -0.016722418 0.2100869 -0.21005924 -0.16187827 0.027094088 -0.15842327 0.06478416
-0.11899523 0.10460342 0.09122511 0.08669985 -0.08194548 -0.14974312 -0.076156884 -0.0050082523
-0.14409606 0.22174932 -0.052780874 0.08742157 0.08086023 -0.023557875 -0.23647939 0.046145637
-0.030251881 -0.14538242 -0.15731552 0.06762968 0.092747316 -0.120432846 -0.17478871 -0.0051769046
-0.18531096 -0.16660051 0.19089043 0.11615461 -0.16408765 0.0691103 0.11360299 0.06932711
-0.008594345 -0.14343806 -0.007128257 -0.09971835

cnn_layers.0.bias f4 [4]
00000000: 11ce 143e f980 243d 0ad4 11be b36e 243e
0.14531733 0.04016206 -0.14241043 0.16057853

cnn_layers.1.weight f4 [4]
00000000: 799d 8a3f 8d11 763f 716c 783f 8397 6e3f
1.0829307 0.9612053 0.9704047 0.9319994

cnn_layers.1.bias f4 [4]
00000000: 81da 7fbe fa61 9e3d 5656 24be becb 9d3d
-0.24985696 0.07733531 -0.1604856 0.07704876

cnn_layers.1.running_mean f4 [4]
00000000: 2dff 593d 1ddb aebd 00ce 18be 1bd4 2bbe
0.05322187 -0.08537886 -0.14922333 -0.1678013

cnn_layers.1.running_var f4 [4]
00000000: 6a62 8e3b e8b2 b63b b2c6 003b d570 d83c
0.004345228 0.0055755265 0.0019649682 0.02642099

cnn_layers.4.weight f4 [8, 4, 3, 3]
00000000: 8569 2d3e 89d6 24bc f760 193d 6658 6c3e
00000010: b92d 913d b6f3 253e a6b1 c13c a099 83bd
00000020: a2dc e8bd fa97 133e c79b d7bc c923 203e
00000030: 26ff 063e 4d60 c9bb aff5 98bd 04b2 223e
00000040: 1c01 bdbd cd4c 2fbd 256b 8e3d 5634 153d
00000050: 56ae 0abd a908 143d b42d 843c 9d0d 8b3d
00000060: c59b ba3d 11f6 183d 9645 33bc f04c 4c3d
00000070: 79e5 d73d 86f9 ea3d 9f5a 073e 0f3d 3dbc
00000080: f92b 113e bd6e 53bd 31dd e9bd 0dfc 483d
00000090: 3416 08be 31c8 093e 7ce5 f43c 4345 9a3d
000000a0: b49e 49bd 0154 10bc 1139 b9bc 66af ca3d
000000b0: f5f1 0e3d 4c4d 88bd b1d3 1fbd 92d1 14be
000000c0: 5a48 8ebd 8665 70bd e3b1 84bd de76 f0bd
000000d0: a6e8 5dbd 7cd8 e8bd 64d6 5bbe b280 22bd
000000e0: 4a39 bdbc 62ba 15be de9a c0bd ede1 e53c
000000f0: c6c4 9abd 4a8d 12be 3d45 a3bd a213 003e
00000100: 93f2 a9bb f8fc 4ebd f440 97bd 950d 18bd
00000110: ed7c f43d b009 bdbb 07d1 29be 7727 043b
00000120: 1346 a23d 8c24 1dbe a9d4 d5bd 935f 54be
00000130: 8dce 7f3d 53fb 94bd 88e1 5abe 5679 05be
00000140: 6e50 22be f623 093e a857 c63d f44b 9bbd
00000150: 9e3f 4d3d e1f4 b93d 00ff 72bd f0a3 d7bd
00000160: c1c1 43bd 3c44 13be a8c2 29bd 393b b53d
00000170: 34f7 d1bd 5eef 27bd db43 83bd 958d a6bd
00000180: ee7b 1abd aa56 ecbd 40bc b23b 70c7 0abd
00000190: e38b a93d 33f5 d23d a986 04be b296 8b3d
000001a0: 30e9 de3d f969 ccbd 6bc9 a13c 0227 8bbd
000001b0: d11b eebd ef89 09be 31c6 1a3e 1646 043b
000001c0: 5663 c83d f6a1 d73d fbba cabd e188 f8bc
000001d0: c3db 663d 4f3b 6ebd ca79 36bb cca2 c93d
000001e0: b0c9 32bb 5b9f dbbd 9ad5 203e b2eb e9bb
000001f0: 1d0b 703c 9b23 d63d eaf8 f7bd af8a 01be
00000200: e87b 323e b8ac 06be e73d 10be 9258 613c
00000210: d96b f1bd d73b 143c ec59 8d3d e234 b23d
00000220: 244a cbbc 2ed6 b93d 1754 953d d127 a43d
00000230: 0211 babc 80ab 553d eb95 893d 971a 88bd
00000240: a949 033e 6100 bebb e83a 363e e04e db3d
00000250: 70ae ee3c 63db 1a3e eeeb c8bd 3baa d5bd
00000260: ef83 383e 2754 e2bd da3d 02be 8eab 353e
00000270: f2f0 babb 6175 4a3c 7a6d f33c aa9b 89bd
00000280: abcf 69bc 33a1 693d 1d65 f1bd 93fd 8ebd
00000290: c915 193e 9117 a33c 8d8e 19be 91aa 41bc
000002a0: 9bab 62ba bc00 6fbd 9778 9f3d e5d1 723d
000002b0: a7af 08be 4847 21be 9b5d da3d ba6f 18bc
000002c0: 80f1 99bd e151 bbbd 6556 bebd f908 13bd
000002d0: 38b6 fdbc 9599 0fbe d2cb 323e e250 9c3d
000002e0: 670a 15be 6582 df3d 9833 9bbd 019f 16be
000002f0: 1365 7c3e 00f8 3ebd 170f 473d dcc0 b6bd
00000300: 2911 bb3d 0fee d73d 95e9 1e3c e39d c9bd
00000310: 972f 503d 6851 973d af68 62bb dcab eabd
00000320: b809 e43d cace ba3d 393f d83b b8dd 103e
00000330: bb2d 5ebd 7a1c 32bd 07c6 fb3a c6d1 2fbd
00000340: c12b 8cbd 1baf 38be a1c6 293d e6fd 58bd
00000350: 878a 223d 4376 bb3c 02f7 a1bd ad4a 53ba
00000360: a56d 173d 2b11 a4bd c5ab ed3d 8acd d13c
00000370: 8a89 43bc 7d85 fbba efab 323c bfff 02bd
00000380: b405 ef3d 3052 0e3d d986 1bb9 1d73 3a3e
00000390: a32b d83d 5090 9dbd cc24 c73d 9d3e fbbd
000003a0: 4adb 57bd a904 413c 2273 c03d 3dfe 4fbd
000003b0: cc99 1a3e 4a17 9fba acaf c8bd 2c85 333e
000003c0: d7a9 a53d 5500 89ba e2f2 ed3d 12be 28be
000003d0: 95ad 51bd b452 2e3d 1d75 5e3d 2eb7 e13d
000003e0: 105c 653d 6bde 4d3d aa1a 5b3d fa0c 25bd
000003f0: 93cc 863d 3c37 613c 86e3 823e 4a49 913d
0.16934784 -0.010060915 0.03744599 0.23080596 0.07088799 0.1620625 0.02364428 -0.06425786
-0.11370207 0.14413443 -0.026319398 0.15638651 0.13183269 -0.006145513 -0.074687354 0.1588822
-0.09228727 -0.042797852 0.0695403 0.036426865 -0.033857666 0.03614107 0.016135074 0.06789706
0.09111742 0.037344042 -0.010941884 0.04987806 0.10541815 0.11473374 0.13218163 -0.011550202
0.1417693 -0.05161928 -0.11419142 0.0490685 -0.1328972 0.13455273 0.029894583 0.07532742
-0.049223617 -0.008809091 -0.02261022 0.09896736 0.034898717 -0.06655368 -0.039020244 -0.1453307
-0.06947394 -0.05869057 -0.06479242 -0.11741422 -0.05417695 -0.11369416 -0.21468502 -0.039673515
-0.023098607 -0.1462188 -0.094045386 0.028061831 -0.07557063 -0.1431171 -0.079721905 0.1250749
-0.005186388 -0.05053422 -0.07385436 -0.037122328 0.1193789 -0.005768977 -0.16583644 0.0020165124
0.07923522 -0.15345973 -0.10440952 -0.20739584 0.06245284 -0.07274499 -0.21375096 -0.13034567
-0.15850994 0.13392624 0.09684688 -0.07582846 0.0501095 0.0907991 -0.05932522 -0.105293155
-0.0477922 -0.14381498 -0.041445404 0.088491865 -0.102522284 -0.040999763 -0.06409427 -0.081324734
-0.037715845 -0.11539967 0.00545457 -0.033881605 0.082786344 0.10300674 -0.12941994 0.06815852
0.10884321 -0.0998115 0.019749364 -0.067945495 -0.11626399 -0.13431524 0.15114667 0.0020183376
0.09784572 0.105289385 -0.09898945 -0.030338706 0.056361925 -0.05816203 -0.0027843588 0.09845504
-0.002728086 -0.10723754 0.15706483 -0.007138693 0.014651087 0.1045601 -0.121080235 -0.1265056
0.17430079 -0.13151824 -0.14086114 0.013754027 -0.117881484 0.00904747 0.06901917 0.08701493
-0.024815626 0.09074055 0.072914295 0.08015407 -0.022713188 0.05216551 0.06718048 -0.066456966
0.12821068 -0.005798385 0.17795908 0.107084036 0.029135913 0.15122752 -0.09810625 -0.104328595
0.18019079 -0.11051207 -0.12718907 0.17741224 -0.0057049925 0.012357087 0.029715288 -0.06719144
-0.014270703 0.057038497 -0.11786864 -0.06981959 0.14949717 0.019908698 -0.14995785 -0.011820451
-0.0008646787 -0.05835031 0.077866726 0.059282202 -0.13348256 -0.15749848 0.10662385 -0.009303981
-0.075167656 -0.091464765 -0.09293822 -0.03589723 -0.030970678 -0.1402343 0.17460564 0.07632615
-0.1455475 0.10913543 -0.075782 -0.14709093 0.24647932 -0.04662323 0.048598375 -0.08923504
0.091341324 0.10543453 0.009699245 -0.098445676 0.050826635 0.07388574 -0.003454726 -0.11458561
0.11134666 0.09121473 0.0065993336 0.14147079 -0.05424283 -0.04348419 0.0019208797 -0.042924665
-0.06844283 -0.18035547 0.041449193 -0.05297651 0.03968289 0.02288354 -0.07908441 -0.0008060139
0.0369698 -0.08011087 0.11605028 0.025610704 -0.011934647 -0.0019189563 0.01090525 -0.03198218
0.1167101 0.03474635 -0.00014832187 0.18207975 0.10555198 -0.07693541 0.09723815 -0.12267802
-0.052699365 0.011780896 0.0939696 -0.05077957 0.15097731 -0.0012137678 -0.09799132 0.1753127
0.08089035 -0.001045237 0.11618592 -0.16478756 -0.05119093 0.04255934 0.054310907 0.11021267
0.055996 0.050260942 0.053492226 -0.04029558 0.06581988 0.013746079 0.25564212 0.07094057

cnn_layers.4.bias f4 [8]
00000000: 3e56 ecbd 5e10 c03c 9485 34bd d15c aebd
00000010: 6373 df3d b2c2 113e 8b71 3f3d 370b 39bd
-0.11539887 0.023445304 -0.044072703 -0.08513797 0.1091068 0.14234427 0.046739142 -0.04517671

cnn_layers.5.weight f4 [8]
00000000: 0261 6f3f 8b00 833f 15e3 603f 7ff5 5b3f
00000010: 5673 8e3f 08b2 843f 302d 893f 8b60 643f
0.935074 1.0234541 0.878465 0.8592147 1.1128948 1.0366831 1.0716915 0.8920981

cnn_layers.5.bias f4 [8]
00000000: b826 303d ce97 c93c ca3f 85bd c197 19bd
00000010: 50b1 17be a8d1 dabc 7192 a9bd 6177 30bd
0.043005675 0.024608519 -0.065063074 -0.03749824 -0.14813733 -0.0267113 -0.082798846 -0.0430826

cnn_layers.5.running_mean f4 [8]
00000000: ad4a 053f 17c1 17bf 6deb 03bf 3a36 e43d
00000010: 82d0 653d c4dd 1d3e 673e d43e a59f 043f
0.5206707 -0.59279007 -0.51531106 0.111431554 0.05610705 0.15416628 0.4145386 0.518061

cnn_layers.5.running_var f4 [8]
00000000: 3357 e13e 48ef b03e 1901 063f 0b69 103f
00000010: dd10 243f dfde 253f 826d 1d3f a44e 3e3f
0.4401184 0.34557557 0.52345425 0.5641028 0.6408823 0.647932 0.6149522 0.74338746

cnn_layers.8.weight f4 [16, 8, 3, 3]
00000000: 8ab1 09bd 20c3 313d 1de9 d4bb aad4 14bd
00000010: 1960 883d 885c b4bd d284 9d3c be8b a33d
00000020: 90a9 c6bb 8a96 ab3d 2248 be3d 294a a0bd
00000030: b230 afbd 6454 33bd 1cad b2bd 7cb9 433d
00000040: 3bae f9bc b96b 9a3a fc6b 8bbc d01a 01bc
00000050: b9d9 3dbd 7652 c53b 5efa 4cbc bd79 49bd
00000060: f193 dc3c 8c44 99bc da12 ebbd e679 aebd
00000070: 6b01 923d 379e 8cbd e893 373d 03ae 7339
00000080: 61c4 52bd 2d2c 533d 58e5 c6bd 7f32 02be
00000090: 2b6c 763d 65d8 b43d be69 60be 0cf8 953b
000000a0: 5625 903d 946f 53bd f6a1 113c 1156 34bc
000000b0: b85a 55be cae4 933d 4c70 3f3d acc5 26be
000000c0: 7229 b1bd 84b5 893d e058 75bd 8802 a63c
000000d0: 735d 21bb 34b5 11be 6871 97bd ebed df3b
000000e0: 3645 cebd 3e63 f03b 6385 dcbc a682 20be
000000f0: 063e 0dbd 57a2 b9bc f129 f6bd b9f7 a83b
00000100: 913b 9a3b d49c a1bd 6d13 ee3c f364 fe3c
00000110: a048 5dbc 72c6 1abc 8ec1 48bd 6a28 26bd
00000120: 32cc 65bd df42 a23d 90e1 5ebd be19 dd3c
00000130: ee19 033e 3cee 663d 5f5e 0d3d a532 d7bd
00000140: 27ec 42bd b5d2 d4bd 48d2 11bd 1803 babd
00000150: f619 5e3d 64db a13c 418f 323d cda8 073d
00000160: 96ec b4bd ab6b cc3c 31f0 90bd 555f 8f3d
00000170: 5a47 db3b 6875 cd3d a27a 8f3d 434a 95bd
00000180: a05b 7e3d c91a 0b3d 1635 eb3c 999c 43bc
00000190: 9e5f eabd b7b6 02be e8ec 84bd a171 a5bc
000001a0: 1380 823d 5e27 453d a127 a93a 5b7f 503c
000001b0: f282 75bd 4ff6 06be 88d3 58bd d076 ee3a
000001c0: 0c45 4bbe 479b 693b cd27 93bd 9df5 90be
000001d0: dce8 57bc dce1 8d3d 86a7 97bc d2b6 9b3c
000001e0: 74a9 f7bc b15c d13c 7e1d 48bc d16f ddbb
000001f0: ae92 46be 4832 29bd 091f 8f3d 4af1 51bd
00000200: 66b1 ab3d 1fe3 023c b485 72bd e5ff aebd
00000210: 1571 1c3d f504 e7bd 138a d43d 70d4 7cbd
00000220: c934 ae3d 6cb7 9f3d 0c12 083d 37c3 8a3d
00000230: b1b0 afbc fa93 02b8 cfa3 e7bd 0bb4 3abd
00000240: cb9f 96bd 841a 5dbd d5bb 0b3e c6ab b03d
00000250: ab2d bd3c 5b25 20bd 43a8 c2bc 2d99 97bd
00000260: a599 6bbb 25ca e5bc d585 353d b7ba cebb
00000270: 93e6 9d3d 07ab b5bd 9a37 413d 5dc2 423d
00000280: 722d 473b dc5f 5a3d 1d32 483c 0313 bcbc
00000290: 48ec c5bd a50d 16bc f3db 94bd 0ea1 f4bb
000002a0: 8ef3 2dbd ebaa 3a3d 73e9 3abd d5da ee3d
000002b0: e74b 0ebd 82e8 e93d 6cae 4dbd bd85 11bd
000002c0: 13df 0d3d 8bf8 4fbd 7854 fdbc 1c90 4f3d
000002d0: d6d3 abbd 700f 62be 1f8a aebd 1231 aebc
000002e0: 17d7 6cbe a3f1 ed3c 8a11 4bbd 0ff8 c5bd
000002f0: 9d07 3a3d 7933 38bd bf22 24be f0d5 193d
00000300: 0e2c 77bd 0d82 7dbe f927 48bc f496 723d
00000310: 2715 6abe fb15 d1bd 2c47 44bd 3806 0dbe
00000320: 6fd6 b7bd e514 66bd eaae 5cbe 10e2 a13d
00000330: 9c21 c7bc ffc2 14be 0941 99bd 5c76 b53d
00000340: 4b98 72bd 760f d5bb 06b2 0d3e 504b 25bc
00000350: 8cb5 6abd 45e4 19bd 1113 a7bd 13f6 163d
00000360: cd17 c83d ef48 28bb a5d5 78bc 8100 92bd
00000370: 38ae 4a3d 8626 743d d518 99bd 28af e7bd
00000380: 19b2 b13d 7dfb 8f3c 073b 043d f38a 533c
00000390: 5bc6 7cbb e0fb a23d 2c1f 51bd 4b32 143d
000003a0: fd6f 5dbd e08c c5bd 2a00 ed3c 1f88 9ebd
000003b0: 386b 313d 6541 8e3b 5d96 cdbc eda6 8b3d
000003c0: a283 cc3c b21f 2abd 93ef c7bd 544f d2bd
000003d0: 5e46 e3bd 1300 aabd 56f6 af3d 6ff6 a7bd
000003e0: 1243 a23d 6b25 c0bd b8df f6bc 1ab8 ae3d
000003f0: d60d 01ba f891 26be 1e8f 4f3d b08f be3d
-0.03361658 0.043398976 -0.006497516 -0.036335625 0.06658954 -0.088067114 0.019228373 0.07985638
-0.006062694 0.083783224 0.09291102 -0.07826645 -0.0855421 -0.043781653 -0.08724424 0.047784314
-0.030478587 0.0011781371 -0.017019264 -0.007879928 -0.046350215 0.006021793 -0.012510864 -0.049188364
0.026926013 -0.018709444 -0.11478205 -0.08519344 0.07129177 -0.068661146 0.04481879 0.0002323911
-0.051456813 0.0515558 -0.097117126 -0.12714575 0.06016175 0.088303365 -0.21915337 0.0045766886
0.07038371 -0.05162008 0.008888712 -0.011006848 -0.20835388 0.072213724 0.046737954 -0.16286343
-0.08650483 0.067240745 -0.05989921 0.020264879 -0.002462235 -0.1422928 -0.073946774 0.006833782
-0.10071795 0.0073360493 -0.026919072 -0.15674838 -0.03448298 -0.022660417 -0.120197184 0.005156484
0.004706808 -0.07891241 0.029061997 0.031053996 -0.013506085 -0.009446727 -0.049012713 -0.040565886
-0.05610294 0.07922911 -0.054414332 0.026989814 0.1280286 0.05637954 0.034513827 -0.105077066
-0.047588494 -0.10391752 -0.03560093 -0.09082621 0.054223977 0.019757934 0.04359365 0.033119965
-0.08834188 0.024953684 -0.07077063 0.07000605 0.0066918554 0.10032159 0.07005812 -0.07289555
0.0620991 0.03396109 0.028711837 -0.011939191 -0.11444019 -0.12765013 -0.06490499 -0.020195784
0.063720845 0.048133247 0.0012905487 0.012725676 -0.059939332 -0.13179897 -0.052936107 0.0018193368
-0.19850558 0.003564553 -0.07185326 -0.28312388 -0.013178077 0.06927845 -0.018512499 0.019008074
-0.030232169 0.025556894 -0.012214063 -0.0067577143 -0.19391891 -0.041307718 0.06988341 -0.0512555
0.083834454 0.00798872 -0.05920954 -0.08544902 0.03819378 -0.11280242 0.10377898 -0.061726034
0.08506162 0.07798657 0.033220336 0.067755155 -0.021446558 -3.113223e-05 -0.11310541 -0.04558186
-0.07354697 -0.053980365 0.13645871 0.08626513 0.023093065 -0.039098125 -0.023761874 -0.07402263
-0.0035949734 -0.028050492 0.044317085 -0.0063088792 0.07709994 -0.088705115 0.047172166 0.04754864
0.0030392078 0.053314075 0.012218979 -0.022958284 -0.09664208 -0.009158527 -0.072685145 -0.0074654883
-0.0424686 0.045573156 -0.04563279 0.11662833 -0.034740355 0.114213005 -0.05021517 -0.035527933
0.03463657 -0.05077414 -0.030924067 0.050674543 -0.08390014 -0.22076201 -0.08522438 -0.021263633
-0.23128925 0.029045885 -0.049577273 -0.09666454 0.045417417 -0.044970963 -0.1602888 0.037557542
-0.06034475 -0.24756642 -0.0122165615 0.05922599 -0.22859631 -0.102092706 -0.047919437 -0.13771904
-0.08976447 -0.05617227 -0.215511 0.07904446 -0.024308018 -0.1452751 -0.074831076 0.08860466
-0.05922727 -0.006502087 0.13837442 -0.010088757 -0.057302043 -0.03757121 -0.081579335 0.03685577
0.09770165 -0.0025678237 -0.015187656 -0.07129002 0.049482554 0.05960705 -0.074754395 -0.11312705
0.086765476 0.017575974 0.032282855 0.012911546 -0.0038570378 0.079581976 -0.05105512 0.036180776
-0.05406188 -0.096460104 0.028930742 -0.07740807 0.043315142 0.0043412917 -0.025096113 0.06818948
0.024965111 -0.041534133 -0.09762492 -0.10269037 -0.11097406 -0.083007954 0.08591907 -0.082013
0.07922949 -0.09382137 -0.030135974 0.08531208 -0.0004923021 -0.1626662 0.050673597 0.0930475

cnn_layers.8.bias f4 [16]
00000000: 89ae 793d f4b9 aebd 37a8 8dbd a5a0 78bd
00000010: 9cb3 43bd bfb7 87bd 643a 2dbd 7833 9f3d
00000020: 923c e03d dac2 c1bb 950c 3f3d 19a4 d03d
00000030: e2da 823d d0e9 b0bd 256a 823c b089 13b9
0.060957465 -0.085315615 -0.0691685 -0.060700078 -0.04777871 -0.06626844 -0.042292014 0.07773489
0.10949053 -0.0059131207 0.04664286 0.10187549 0.06389405 -0.08638346 0.015919754 -0.00014070305

cnn_layers.9.weight f4 [16]
00000000: 4f06 3d3f 3fa4 3b3f ecb9 393f 0278 493f
00000010: fc8b 593f 59d2 323f d022 523f 10ba 303f
00000020: 8145 363f ba42 423f a076 433f 6391 553f
00000030: 54c2 463f b8d0 283f 2334 1a3f 5453 493f
0.7383775 0.73297495 0.7254932 0.7869874 0.84979224 0.69852215 0.8208437 0.6903391
0.71199805 0.75883067 0.7635288 0.8342497 0.7764027 0.6594348 0.60235804 0.78642774

cnn_layers.9.bias f4 [16]
00000000: f7c1 33be 02c5 4ebe 6fcb 5bbe 0508 60be
00000010: af24 8cbd d3a1 2abe 3789 a3bd 3273 66be
00000020: a08b 5bbe b915 3dbe 8b9f 65be 7ecb 1dbe
00000030: 5a4e 5bbe 9e84 2cbe e903 78be 50ec 1bbe
-0.1755446 -0.2019234 -0.21464323 -0.21878059 -0.06842934 -0.16663294 -0.07985156 -0.22504881
-0.21439981 -0.18465318 -0.22424142 -0.15409657 -0.21416607 -0.16847464 -0.24220242 -0.15226865

cnn_layers.9.running_mean f4 [16]
00000000: b2ca 13bf 7dfd e7be 66c4 62bf b41d 47bf
00000010: 6fc0 2ebf bb1a 05bf ffd8 1cbf 9263 94be
00000020: 6c2a eebe 4827 0dbf a422 f5be 5251 86be
00000030: af50 06bf 56c2 0cbf db5a d0be e7dc f5be
-0.57731164 -0.45310584 -0.8858093 -0.777797 -0.6826238 -0.5199391 -0.6126861 -0.28982216
-0.4651674 -0.55138063 -0.4787799 -0.26233917 -0.52466863 -0.54984033 -0.40694317 -0.48020098

cnn_layers.9.running_var f4 [16]
00000000: c73c 4e40 b094 dc3f 49b6 a140 df90 5940
00000010: 2efc 1340 28fe a13f 9cf4 c23f 7051 0640
00000020: c1e4 fe3f c060 5340 0d88 0240 f2db 4840
00000030: cb63 4540 746c 463f e693 8b3f f4cf 3840
3.2224596 1.7232876 5.0535016 3.3994672 2.3122668 1.2655687 1.5230899 2.0987206
1.991356 3.3027802 2.0395539 3.1384244 3.0842159 0.77509236 1.090451 2.8876925

linear_layers.0.weight f4 [30, 1936]
00000000: 161d 243c 22b5 61bb 65b9 493c ad03 243b
00000010: 9848 a1bc d0dc 9bbc 0202 263b af45 8cbc
00000020: 7e1a c6bb e13d e4ba 77e6 d4bb 9ce4 c13b
00000030: 0bda 8cbc 7d4a 013c e7e6 a83b 0854 23bb
00000040: 3e94 8b3c c792 1cbc 1a83 ecbc 9b8a bbbb
00000050: 8d96 c5bc 6bbb ba3c ad6f 2b3c 0a75 fe3b
00000060: b7cb 873b d41e c5bb 7aef 043d e95c 933c
00000070: deb0 be3b 435e e6bc 9c0e dcbc a62a c4bc
00000080: ff3a da3b 6b40 303c 7fcd 90ba d098 75ba
00000090: aacf 5fbc 978c 693c 79c9 873c 2cc5 efbb
000000a0: 0468 4abc d934 53bd 7a12 b13c 5103 ca3c
000000b0: 3325 613b 7cd7 3e3c 9322 a33b d619 bf3b
000000c0: a8b2 ae3b 4653 b13b 99f8 8b3c b8d8 98ba
000000d0: a60f c2bc 6019 9dbc 8c06 11bb 6ca6 553b
000000e0: 65ef bd3b be5f 80bc 9445 afbc 3f92 d1bb
000000f0: 39a5 453c 4448 a53a c881 653c 5953 1fbd
00000100: e524 52bc 4592 cb3c 037d b4bc 109d 953b
00000110: 3d6a 103c f42d 20bc 3722 303c 6fc7 bfbb
00000120: 63ab 84bb d7bd 303d 7c4a b4bc 5c28 30bc
00000130: 4127 4bbc 0657 0f3b bf8a bdbb 5780 843b
00000140: 7e11 213c 6fcd 1a3b b4e6 5b3c b803 68bc
00000150: 1528 8e3c 011c a8bb cc78 8a3c 2d1e 0c3c
00000160: 4499 6a39 470f 0dbc cc75 fd3b 6fa4 813c
00000170: 10de 8b3c 8200 2ebb 3c4e 39bc 29d8 69bc
00000180: 4642 13ba 3eb2 b0bc ceb2 3739 79f3 703c
00000190: 0318 b1bc 8828 003c b318 b73c aa16 ab3a
000001a0: daa2 fb3c b66d dabc ad9a d4bc b843 f5bc
000001b0: a58c e2ba 3223 953b 74a7 06bc 98fa da3b
000001c0: 91b5 333b 6c44 5dbc bc41 b03b 3812 8c3c
000001d0: 7eb2 15bd ef35 30bc 1f85 253c 55db 503b
000001e0: 4bdb 62bc 03b4 e3bb e5d6 283c 93b1 f83b
000001f0: c36d ee3b 4615 26bc ed82 90bb 7a4d c5bc
00000200: 87a0 a2bc 1d8c 90bb 0ab4 b3bc 9aa2 12bb
00000210: 9749 23bc 801b 4a3a 1894 5f3b 2f92 8d3b
00000220: 9a99 a53b 2592 fcbb 1c3f 7a3c e7fc cbbb
00000230: 816f dc3a 6b84 093c f4d7 943a 35f1 85bc
00000240: b383 8cbc ac2c a73b d3fe 3bbc 9b45 dbbc
00000250: 8260 cd37 df44 aabc cdc1 083b 4575 c93b
00000260: 5a22 e2b8 e481 cbbc 349f e73b 2d87 82bc
00000270: 1eb3 9d3c 54a5 1bbb 8dc9 c33b 4322 3bbc
00000280: 8cf9 6b3c 5e05 a1bc 2197 f93b 1344 853a
00000290: 581f a3bc 82cc c5bb 37ea 1f3b 6676 003d
000002a0: 3c7b d9b9 d2e7 853c d3ef 0b3d 02ab acbc
000002b0: 093b 4bbd dc49 e93c 2c5b ba3c 3b82 a53c
000002c0: d6b5 92bc 1545 2dbc e7fe b23a 79fd 93bc
000002d0: 841e acbb aab3 d53c 398f 45bc 8d19 18bd
000002e0: 3fae f03c 28a6 ac3c 6225 263c 63bc 3fbb
000002f0: a0e0 5c3c 570e 14b9 66fa dcbb 4c48 caba
00000300: deaf 6d3c 3b9e e7bb 77dc b43b 7080 873a
00000310: 66e7 823c 1871 4d3b abef 89bc 62eb fdbc
00000320: e5eb c7bc 7710 c83b 192e be3c 5bc3 06bb
00000330: 8217 bdbb d09d bbbb 2f6d 273c 56a4 bbbb
00000340: 6b83 95bc 6243 e739 3092 353c 912a 513c
00000350: 54f7 833b 20e3 803c e54f 32bb 13e2 07bb
00000360: 6608 103b 8a58 cdbc d163 35bc 51ce fd3a
00000370: 6fc7 b43c 0615 12bb d907 16bc b617 85ba
00000380: f5a5 7dbc f765 84bb cd84 8dbb 2172 41bc
00000390: a2d6 2e3a b17a cbbb a971 84bb 8cdc 7b3c
000003a0: 4fbf 323c ccda 1f3b 20a2 923b 125d b53b
000003b0: 09ad ea3b 2702 753c 9460 71ba 80f2 c43b
000003c0: 89e6 a8bb 8bd2 36bb b4fb ce3c ab2b 00bc
000003d0: 8941 42bb 43ea 6dbc 3241 41bc 3fec d33b
000003e0: 6d0b 98bc 5aea 263c 2749 b4bb cccf 12bc
000003f0: dc6d a2ba 9b27 ddbb c64b 583c 6f17 20bc
0.0100167 -0.003444024 0.012312268 0.0025026605 -0.019687936 -0.01902619 0.0025330787 -0.017123071
-0.0060456386 -0.0017413461 -0.0064972 0.005917145 -0.017193815 0.007891295 0.005154479 -0.0024921913
0.01703846 -0.009556479 -0.028871108 -0.00572331 -0.02411964 0.022794446 0.010463637 0.007765417
0.0041441577 -0.006015638 0.032454945 0.017988639 0.005819424 -0.02812112 -0.026862435 -0.023946118
0.006659865 0.010757546 -0.0011047571 -0.0009368779 -0.013660351 0.014254711 0.016575562 -0.007317206
-0.012353901 -0.05156407 0.021615256 0.024659785 0.0034354448 0.011648055 0.004978487 0.0058319373
0.005331356 0.0054115383 0.017086314 -0.0011661267 -0.023689102 -0.019177139 -0.0022129146 0.0032600416
0.0057963603 -0.015670653 -0.021395482 -0.0063956077 0.012063318 0.0012610038 0.014007993 -0.038897846
-0.012826179 0.02485002 -0.022032266 0.0045658424 0.008814392 -0.009776581 0.010750345 -0.0058526318
-0.004048751 0.043149795 -0.022008173 -0.01075181 -0.012399496 0.0021871938 -0.005784362 0.0040436196
0.009830831 0.0023620983 0.013421703 -0.014161043 0.017353097 -0.0051302915 0.016903304 0.008552116
0.00022373075 -0.008609599 0.0077349897 0.015825478 0.017073661 -0.0026550596 -0.011310156 -0.014272728
-0.00056174805 -0.021569367 0.0001751885 0.014706486 -0.021617895 0.007822163 0.022350645 0.0013053019
0.030717302 -0.026663642 -0.025952661 -0.029939517 -0.0017284347 0.0045513147 -0.008218635 0.006682705
0.0027421454 -0.013505083 0.00537893 0.017098531 -0.036547177 -0.010755046 0.010102539 0.0031869013
-0.013846229 -0.0069489493 0.010305141 0.007589528 0.007276268 -0.010136908 -0.004410139 -0.024084795
-0.019851936 -0.004411234 -0.021936435 -0.002237475 -0.009966276 0.00077097863 0.003411537 0.004320405
0.005053711 -0.0077078515 0.0152738355 -0.0062252167 0.0016817899 0.008393387 0.0011355863 -0.016350368
-0.017152643 0.005101761 -0.011474329 -0.026766589 2.4482844e-05 -0.020784793 0.0020867467 0.006148013
-0.00010782918 -0.02484221 0.007068539 -0.015933597 0.019250449 -0.0023749666 0.0059749545 -0.011421743
0.014402758 -0.01965588 0.007616893 0.0010167382 -0.019912407 -0.006036342 0.0024401078 0.031362914
-0.00041481282 0.016345892 0.03416426 -0.021077637 -0.049616847 0.028477602 0.022748552 0.0202037
-0.017908972 -0.0105755525 0.0013656289 -0.018065201 -0.005252661 0.026086647 -0.012058073 -0.037133742
0.029379962 0.021075323 0.010140749 -0.0029256574 0.013481289 -0.00014119722 -0.006743717 -0.0015432923
0.014507262 -0.007068423 0.0055194455 0.001033796 0.01597948 0.0031347927 -0.016837915 -0.030996028
-0.024404475 0.0061054784 0.02321534 -0.0020563218 -0.0057706246 -0.0057256 0.0102189025 -0.0057263775
-0.018251142 0.00044109958 0.011082217 0.012766496 0.0040272865 0.015733302 -0.0027208265 -0.0020734116
0.0021977662 -0.025066633 -0.011071161 0.0019363855 0.022067754 -0.0022290363 -0.009157144 -0.0010154161
-0.015481462 -0.0040404755 -0.0043188096 -0.011806996 0.0006669556 -0.0062096943 -0.0040418697 0.015372407
0.010909869 0.0024391888 0.004474893 0.0055347765 0.0071617407 0.014954126 -0.00092078117 0.0060103536
-0.005154435 -0.002789649 0.025266506 -0.007822911 -0.0029641113 -0.014521184 -0.011795329 0.0064673717
-0.018560136 0.01018771 -0.0055018845 -0.008960675 -0.001239236 -0.006749106 0.01320166 -0.009771212

linear_layers.0.bias f4 [30]
00000000: 24da 343d 5dac 89bc e307 51bd 0281 e7bb
00000010: b1d1 693c 3b36 bcbc 4d86 443d b377 3bbd
00000020: 5bb8 99bc 3ede 3bbc 1ded 58bd 8d9b c3bc
00000030: 7297 0d3d 852a 61bd 84ba 3e3d 8860 32bd
00000040: 4c4c 0bbc 08c5 bfbc 3e0f 6bbd 10a4 a7bc
00000050: 0ee2 1f39 3cbe f83c 0638 713c 86c7 613d
00000060: 30c0 52bc 459d 293d b375 bcbb 42e7 4d3d
00000070: 1e2c 6b3c 57b3 653d
0.044153348 -0.016805822 -0.051032912 -0.0070649395 0.014271186 -0.022975078 0.04797964 -0.04576845
-0.018764665 -0.011466561 -0.052960504 -0.023877883 0.034568258 -0.05497219 0.046564594 -0.04354909
-0.008502077 -0.023409382 -0.057387583 -0.020463973 0.00015247634 0.030364148 0.01472283 0.05512192
-0.012863204 0.04140975 -0.0057513355 0.050269373 0.01435378 0.056079235

exp_avg f4 [4, 1, 5, 5]
00000000: c343 3438 2a09 b839 0b34 cf39 d324 80b9
00000010: 2298 14ba 0ad5 4ab9 0f5a c5b8 b29c cfb8
00000020: 20b5 10ba 0e4b 39ba 8c2f 64b9 7052 ccb8
00000030: c9b0 1937 b154 08ba ea1d d9b9 623b efb8
00000040: ace1 29b8 0857 6bb9 5114 36ba bcd9 1fb9
00000050: 98dc e9b8 d61e 0fb9 05cc c3b9 646e 1dba
00000060: 04d7 2239 4598 fd38 442f af37 3e0c a6b7
00000070: 4932 63b9 bee2 f5b8 f0da 7eb8 7290 aa38
00000080: c3d7 0239 e0aa acb6 0742 a836 b4c6 8fb9
00000090: 9551 b0b7 f8fe 4c37 b8cd 66b8 ff5b 1639
000000a0: 8437 4fb9 6c87 c237 cc1a 06b8 778f 51b9
000000b0: 825a 3f39 68da e438 d2da 9a39 4300 5739
000000c0: 479d ea38 2c62 b839 1437 aeb8 8359 dfb8
000000d0: 1bd1 6ab8 d07a d5b9 6c5d e1b9 caa8 23b9
000000e0: d3bc abb6 ad1b 5a39 dbfd dab9 f562 4eba
000000f0: 3e38 46b9 1fb7 28b8 9082 ab39 237b fcb8
00000100: 8a24 e4b9 8cd6 a4b8 3598 6339 4618 a039
00000110: 9c56 3db9 246d 04b9 2715 1e39 9083 e739
00000120: b721 273a 4fcb 9e38 f5ba a439 1609 9cb9
00000130: 4c68 7bb9 15d7 1eb9 39ef e8b8 d5ab 8eb8
00000140: 783b 39b9 fd33 03b9 b718 c2b8 a75e 04b9
00000150: 4f09 c2b8 3e07 b3b8 6efc aab8 c3d3 2cb8
00000160: 9da8 73b7 0c50 be37 d738 b1b8 2164 c6b8
00000170: c4c3 2eb7 1e5c 5e38 dfbc ff38 b006 b5b8
00000180: ab47 22b8 73a1 b7b7 34aa 0438 4e1a 3539
4.2978452e-05 0.00035102043 0.00039520892 -0.000244415 -0.00056684215 -0.00019343584 -9.410467e-05 -9.899716e-05
-0.0005520154 -0.0007068374 -0.00021761487 -9.742833e-05 9.160672e-06 -0.0005200608 -0.00041411753 -0.00011407469
-4.0502913e-05 -0.00022443768 -0.00069457764 -0.00015244534 -0.000111513946 -0.0001364903 -0.00037345305 -0.0006005524
0.00015529623 0.000120923425 2.0883635e-05 -1.9794443e-05 -0.0002166714 -0.000117247444 -6.076222e-05 8.133137e-05
0.00012478144 -5.145892e-06 5.0144768e-06 -0.0002742313 -2.1018825e-05 1.2218712e-05 -5.5027864e-05 0.00014339386
-0.0001976174 2.3189663e-05 -3.1973046e-05 -0.00019985238 0.00018248896 0.000109125685 0.00029536203 0.00020504095
0.00011187285 0.0003516836 -8.307226e-05 -0.000106501415 -5.5984692e-05 -0.00040718028 -0.0004298495 -0.0001560777
-5.118179e-06 0.0002080041 -0.00041769337 -0.0007873022 -0.00018903703 -4.0224866e-05 0.00032712938 -0.000120392324
-0.00043514773 -7.860092e-05 0.00021705109 0.00030535663 -0.00018056709 -0.00012629159 0.00015075934 0.00044157775
0.00063755683 7.571896e-05 0.0003141981 -0.00029761408 -0.00023976079 -0.00015148178 -0.00011107181 -6.803094e-05
-0.00017665129 -0.000125125 -9.2552444e-05 -0.00012623762 -9.252375e-05 -8.536734e-05 -8.1532504e-05 -4.1205214e-05
-1.4523187e-05 2.268704e-05 -8.450605e-05 -9.460026e-05 -1.0416788e-05 5.3014715e-05 0.000121945275 -8.631998e-05
-3.8690556e-05 -2.189048e-05 3.1629766e-05 0.00017271304

exp_avg_sq f4 [4, 1, 5, 5]
00000000: ad59 0837 5786 0237 de0b f536 6a1e 1037
00000010: 474e 9636 b956 e436 aba3 d436 f796 ba36
00000020: 5f40 de36 2d7d 7436 4e19 de36 8b40 d136
00000030: dc80 b736 264f df36 1ba9 6936 c56f d536
00000040: 8c9d c736 0393 b436 e6b3 c236 94b6 4e36
00000050: c241 d336 1df9 c536 4388 b736 ea35 b836
00000060: 42d5 6536 bee6 8c36 c6c3 5e36 b825 3636
00000070: bf8c 4236 3d84 f035 20ff 7e36 82b8 4d36
00000080: 194d 2e36 8c2b 3636 b11b d135 f720 8936
00000090: 93c9 6d36 2493 5636 77cc 5f36 79d0 3836
000000a0: 7c46 9636 abab 8436 738a 7b36 44ac 9036
000000b0: d95a a236 7ada a536 0ea3 9636 a1ed 8d36
000000c0: 45ef 9c36 6a63 c236 3820 9a37 8274 9d37
000000d0: 15fa 9f37 db7f 9e37 553e b437 4bd0 9a37
000000e0: e8a7 9c37 9614 9e37 8fc7 9f37 fcb1 a337
000000f0: 4739 9a37 d606 9937 c27b 8f37 5736 9537
00000100: f123 8e37 ad0a 9d37 0c73 9337 2408 8f37
00000110: 3b80 9137 b0f9 8337 337b 9e37 147e 9437
00000120: d549 8f37 3a9d 9237 ca57 9237 0e14 6c34
00000130: d8fe 1c34 c97d ee33 c4d4 0934 6d96 4834
00000140: 6213 3034 6821 a033 1bb3 1433 2444 8233
00000150: 2fb0 1234 47ac 3d34 d7fb ac33 3ca2 1133
00000160: 6674 4233 0f9b 0034 4de9 8634 df4f 2234
00000170: 2a39 cb33 957a f833 f060 4234 881b b034
00000180: cf26 7a34 8f8b 4034 fea5 4e34 7b8d 8034
8.127111e-06 7.779882e-06 7.3029505e-06 8.59015e-06 4.479461e-06 6.8050254e-06 6.337146e-06 5.5608066e-06
6.6236094e-06 3.6431695e-06 6.6190614e-06 6.236199e-06 5.468826e-06 6.655132e-06 3.4818138e-06 6.3609064e-06
5.949003e-06 5.3815324e-06 5.8025935e-06 3.0802667e-06 6.2959452e-06 5.900058e-06 5.469688e-06 5.4899037e-06
3.4247792e-06 4.199187e-06 3.3194533e-06 2.7142069e-06 2.8990178e-06 1.791988e-06 3.7997452e-06 3.0654778e-06
2.5972897e-06 2.714546e-06 1.5579773e-06 4.086756e-06 3.5433084e-06 3.1974132e-06 3.3348604e-06 2.7539484e-06
4.478554e-06 3.9538913e-06 3.7482503e-06 4.311589e-06 4.8385523e-06 4.942817e-06 4.4893304e-06 4.229791e-06
4.677017e-06 5.793224e-06 1.8373234e-05 1.8770112e-05 1.907073e-05 1.8894605e-05 2.1486698e-05 1.8455225e-05
1.8674837e-05 1.8844654e-05 1.9047204e-05 1.9513995e-05 1.8384902e-05 1.8242205e-05 1.7104558e-05 1.7787488e-05
1.6944456e-05 1.872083e-05 1.7577338e-05 1.705072e-05 1.7345059e-05 1.5732687e-05 1.8892437e-05 1.7701685e-05
1.708131e-05 1.747777e-05 1.7445436e-05 2.1986509e-07 1.4621344e-07 1.1105619e-07 1.2836523e-07 1.8681176e-07
1.6398329e-07 7.456657e-08 3.462183e-08 6.0659914e-08 1.3661405e-07 1.7664671e-07 8.0551835e-08 3.3907995e-08
4.527501e-08 1.1977339e-07 2.5129194e-07 1.5116483e-07 9.463322e-08 1.15706975e-07 1.8102924e-07 3.2802586e-07
2.3297183e-07 1.7932165e-07 1.9245633e-07 2.3944798e-07

exp_avg f4 [4]
00000000: 7ac1 5c31 36fe 1131 12a7 cab0 fa9c 4930
3.2124192e-09 2.124478e-09 -1.4744919e-09 7.334645e-10

exp_avg_sq f4 [4]
00000000: 53f5 cf27 7b55 5826 4418 0727 bf2e c924
5.7720023e-15 7.50559e-16 1.8748168e-15 8.7249046e-17

exp_avg f4 [4]
00000000: 96d1 f538 34e4 2139 69f2 82b8 7c06 2db9
0.00011721549 0.00015439169 -6.2440355e-05 -0.00016500981

exp_avg_sq f4 [4]
00000000: 5b0a 3435 c810 c334 46e8 1935 a520 1035
6.7070295e-07 3.633379e-07 5.7334944e-07 5.3691684e-07

exp_avg f4 [4]
00000000: cac3 3939 85be 6337 d335 4237 96df 5fb9
0.00017715912 1.3574613e-05 1.1575833e-05 -0.0002135023

exp_avg_sq f4 [4]
00000000: a15a 4935 864e 0a35 bd48 0335 3112 0035
7.501022e-07 5.152327e-07 4.890715e-07 4.771019e-07

exp_avg f4 [8, 4, 3, 3]
00000000: 7d56 da35 779a dab7 a5bc 6cb8 055a f8b8
00000010: 31af 8837 d626 9cb8 dcc2 68b9 fb5f c6b8
00000020: 4c75 a7b8 2354 9639 fbb9 5539 68a1 99b8
00000030: 2b75 bc38 eb6b 4d38 7fe3 feb8 4165 f538
00000040: 8694 aeb8 9b44 5fb9 36c3 6db9 ea0e 57b9
00000050: ff93 0bb9 2a01 71b9 b04f e8b8 20e5 b1b9
00000060: d943 87b9 531e 97b4 f015 18b9 e30e 8039
00000070: 2d2e 7038 0d57 4bb7 4436 1839 7a2d f3b7
00000080: d11d d1b8 cb78 f238 aeff 80b8 c836 fdb8
00000090: 91d6 ba37 daf9 21b8 34bb bab8 94e1 b437
000000a0: c8a8 d4b8 5915 86b8 7dd6 e336 c901 c5b8
000000b0: fb18 71b6 ca10 efb7 5dd7 9638 e62a 3cb8
000000c0: c41d acb8 2a3b 63b8 88f8 0db9 4f03 dc36
000000d0: f8a4 cfb8 9983 a6b8 bec9 22b8 4d8b c7b8
000000e0: e7c4 9db9 f72a e9b7 1b13 25b8 b795 17b8
000000f0: 0b8d 2439 85b0 8238 4249 a838 11d3 26b8
00000100: fba8 a6b6 21b3 18b8 ca55 ed37 3788 b2b7
00000110: 5658 9fb8 6438 3a39 6f94 8238 6a13 93b3
00000120: e433 7637 fb7a 67b8 5d93 5938 d82d 9a37
00000130: 7244 a1b7 f8b3 1338 c9c7 0738 b524 75b8
00000140: c31c c137 096b 7939 acb0 8638 9915 d2b5
00000150: c022 1539 50fd 3237 9e89 10b8 41d0 5838
00000160: f770 3f38 5027 3fb8 f40a 1ab9 93b4 c5b8
00000170: 2170 5938 d721 a2b7 db98 3737 bfd7 a737
00000180: c4d1 ea38 41ed 8138 9ff0 9938 7cf6 f238
00000190: 8001 d337 cf7f 12b8 2219 cb38 e84c 72b6
000001a0: 9343 80b8 29d2 ba37 c820 a5b7 b190 8cb8
000001b0: 2b89 1f38 2b3b 10b8 dcb5 e8b6 80b9 1d38
000001c0: 32cf a637 7f51 d238 9f13 a137 c6a1 9638
000001d0: d333 9638 1b4a 02b7 4f15 d5b8 f514 dbb8
000001e0: de16 7a37 ddac 31b8 31ad a4b8 5712 abb8
000001f0: 1d69 80b8 e365 afb8 16f8 7eb7 4251 73b8
00000200: 71a7 68b8 c46f 07b8 b5e0 cfb7 73ea 8c38
00000210: bd08 a337 8a47 4c38 f090 7937 bbba 9fb6
00000220: 78d3 7fb8 a3dd 64b8 da96 d137 581f f3b6
00000230: 6561 20b8 9ff9 6b38 ab8d 15b8 2efe d7b8
00000240: d7a0 2539 c7a7 9939 0f34 8539 0789 a638
00000250: 1f5a cc38 4c0c 9239 1e2f 9f38 149d 7339
00000260: 8f4c 9739 ea2d 9a39 f35f 8639 d7d3 d139
00000270: 4f53 c639 4ac4 d939 7108 ce39 8714 7339
00000280: c0a1 9e39 20ef b639 47b0 8a39 4353 aa39
00000290: 6506 ab39 a07b 6139 88aa 2739 5601 9d39
000002a0: 195b 7938 b7d5 3b39 a7cc 91b8 481a a139
000002b0: 24a6 a039 ca16 bb39 2e56 8239 4408 5a39
000002c0: f48f 9f39 6fb6 4d39 9161 3339 e479 5339
000002d0: 251f 6139 1372 4539 db53 e538 0380 b938
000002e0: bf88 ba38 4f5f c638 b6d0 fe38 9927 4e39
000002f0: f863 5437 9bb8 8c38 e7b7 8239 57d6 2038
00000300: 1c14 7c39 2a83 3539 ca98 5839 a610 9439
00000310: 9c43 8c39 387b 9439 5d12 5039 7632 8438
00000320: 1b72 41b7 d946 b739 1d6e 0d38 a79b a638
00000330: 37ef ccb8 aa29 fa37 f214 7ab9 3976 6b38
00000340: ea03 4539 8961 2f39 0052 2239 2c61 4939
00000350: 8f0f 4a39 9d6a 2339 de75 2e39 4a7f 2739
00000360: 1dd0 dab8 33e4 0a38 430b 0139 4564 5eb9
00000370: 4443 bd38 b94f 7739 9759 dbb8 11a7 3739
00000380: 9546 5739 11bd 94b6 fbce 1eb7 e447 93b8
00000390: ccfe b2b7 0943 ad38 4791 9a38 d0fd f638
000003a0: 047d cd38 ecd3 1c38 f428 0535 4ab8 9b39
000003b0: 5519 1c39 00d0 deb9 a889 a6b8 f06d e8b8
000003c0: c318 8cb9 eec1 0338 1bc9 e838 120e 1039
000003d0: b7f3 0e38 d5bf ceb6 50da 8639 00d1 e338
000003e0: 30ec 0d39 7139 9039 cf95 0539 4e99 0939
000003f0: 48c8 7f38 1bbe 35b7 e976 4538 af96 07b8
1.6267437e-06 -2.6059553e-05 -5.6442474e-05 -0.00011842329 1.6294043e-05 -7.4458934e-05 -0.00022197835 -9.4592535e-05
-7.985029e-05 0.00028672916 0.00020382546 -7.325673e-05 8.986363e-05 4.8976315e-05 -0.00012154038 0.000117013704
-8.324631e-05 -0.00021292495 -0.00022674803 -0.00020509554 -0.00013311206 -0.00022983985 -0.00011077465 -0.00033930782
-0.00025799757 -2.8148006e-07 -0.00014504022 0.00024425154 5.7263464e-05 -1.2120011e-05 0.00014516065 -2.8989034e-05
-9.97145e-05 0.00011561959 -6.15114e-05 -0.00012074184 2.2272843e-05 -3.8618084e-05 -8.9040404e-05 2.1562715e-05
-0.00010140386 -6.393594e-05 6.790097e-06 -9.3940245e-05 -3.592634e-06 -2.8498838e-05 7.192672e-05 -4.4862645e-05
-8.2071434e-05 -5.417612e-05 -0.00013539393 6.556896e-06 -9.901257e-05 -7.940009e-05 -3.8811697e-05 -9.515006e-05
-0.00030092077 -2.7795772e-05 -3.935686e-05 -3.614064e-05 0.00015692801 6.2317624e-05 8.0245096e-05 -3.9774055e-05
-4.9668574e-06 -3.640645e-05 2.829255e-05 -2.1282684e-05 -7.598165e-05 0.0001775935 6.226531e-05 -6.848752e-08
1.4674824e-05 -5.5189226e-05 5.1874074e-05 1.8379578e-05 -1.9224568e-05 3.521514e-05 3.2372573e-05 -5.8446738e-05
2.3020786e-05 0.00023786364 6.4225256e-05 -1.5652505e-06 0.00014222693 1.0668606e-05 -3.446044e-05 5.1692365e-05
4.5643155e-05 -4.557456e-05 -0.00014690665 -9.4273266e-05 5.184126e-05 -1.9327663e-05 1.0943239e-05 2.0008416e-05
0.000111970614 6.195391e-05 7.340428e-05 0.000115853705 2.5153859e-05 -3.4928144e-05 9.684476e-05 -3.6105575e-06
-6.116102e-05 2.2270791e-05 -1.9684798e-05 -6.702671e-05 3.80363e-05 -3.438738e-05 -6.93531e-06 3.7604477e-05
1.9885225e-05 0.0001002876 1.9201832e-05 7.18269e-05 7.1622104e-05 -7.765858e-06 -0.000101606005 -0.00010446637
1.4906485e-05 -4.236108e-05 -7.852389e-05 -8.1573315e-05 -6.1230945e-05 -8.363628e-05 -1.5197342e-05 -5.8011392e-05
-5.5469052e-05 -3.2290598e-05 -2.478096e-05 6.71939e-05 1.9435183e-05 4.8704016e-05 1.4875302e-05 -4.7603075e-06
-6.0993683e-05 -5.456585e-05 2.4984987e-05 -7.2456132e-06 -3.823768e-05 5.6260844e-05 -3.5656307e-05 -0.000102993436
0.00015795544 0.00029307438 0.00025406523 7.94102e-05 9.7442644e-05 0.00027856452 7.590487e-05 0.00023232802
0.00028858005 0.00029407378 0.0002562996 0.0004002142 0.00037827573 0.00041535712 0.0003929767 0.00023181933
0.00030256622 0.00034891907 0.00026452748 0.00032486962 0.00032620426 0.00021503726 0.00015989889 0.0002994637
5.9451068e-05 0.00017913325 -6.952258e-05 0.00030727894 0.00030641363 0.000356844 0.0002485974 0.0002079318
0.00030434097 0.00019618285 0.00017107117 0.00020167936 0.00021469274 0.0001882988 0.0001093519 8.8453315e-05
8.894642e-05 9.459128e-05 0.00012150539 0.00019660442 1.26594605e-05 6.710106e-05 0.0002493255 3.8346592e-05
0.00024040084 0.00017310368 0.00020656284 0.00028241164 0.00026753254 0.00028320565 0.00019843267 6.3036496e-05
-1.1530264e-05 0.00034957266 3.371957e-05 7.944489e-05 -9.772035e-05 2.9821724e-05 -0.0002384966 5.613847e-05
0.00018788842 0.00016725635 0.00015480071 0.00019205053 0.00019270017 0.00015584608 0.00016637842 0.0001597378
-0.00010433814 3.311429e-05 0.00012306594 -0.00021208923 9.0247515e-05 0.00023585455 -0.00010459421 0.00017514477
0.00020530292 -4.432754e-06 -9.465725e-06 -7.022897e-05 -2.1337903e-05 8.261769e-05 7.370352e-05 0.0001177747
9.798448e-05 3.7390666e-05 4.9605956e-07 0.0002970121 0.00014886756 -0.00042498112 -7.941137e-05 -0.000110830995
-0.0002672133 3.1413445e-05 0.00011100081 0.00013738152 3.4082415e-05 -6.1616106e-06 0.00025721127 0.00010863133
0.00013534795 0.00027508617 0.00012739676 0.00013122449 6.0983264e-05 -1.0832703e-05 4.7079204e-05 -3.2326843e-05

exp_avg_sq f4 [8, 4, 3, 3]
00000000: 3f3a 4634 5592 7534 e567 1e35 496d 3334
00000010: 7295 9534 e8cd 1c35 fe2a ab34 e772 c334
00000020: 4b1b 0435 7ce0 9634 785e 7f34 0497 d334
00000030: babf 9434 6cfa 8234 0b17 8d34 5d77 a134
00000040: 7c2d a234 fd8f 9734 6d41 2735 aeac b234
00000050: 4c0c 5d35 b798 2035 840d d834 b9be 4535
00000060: 7b79 1f35 874d e434 d478 4035 93b4 7f34
00000070: 1d99 be33 0406 fb33 be44 aa34 2ed0 4c34
00000080: c1ad 5534 7cbd dc34 c678 c434 8060 bd34
00000090: 2f0e d033 c605 5834 8548 9234 8416 e933
000000a0: cd39 2634 f319 5634 3f56 0034 54d7 3f34
000000b0: 24d7 9734 49a7 1335 2463 bc34 ba95 6f34
000000c0: 2407 9134 abc7 2834 cc10 2a34 13e1 3d34
000000d0: c615 fa33 cfd1 ff33 f981 2434 550b b434
000000e0: a511 1335 8c52 2934 24c1 8a34 6d2b 1335
000000f0: 63d5 9834 b61f ac34 f15d 2235 c222 f734
00000100: 0eee a034 b504 7934 5532 e134 2347 9a34
00000110: 06c0 6e34 5a12 ce34 5709 9a34 1c91 6d34
00000120: 80ea 0e34 c32e 0434 33ed ba33 8e48 7133
00000130: 4032 bd33 ce98 9933 d9fe 2033 afa4 7933
00000140: 1f03 8433 5ab4 2b35 8b9b 4635 1064 3135
00000150: bb82 f634 1354 0535 a5a4 c034 0b10 7734
00000160: f566 6334 41c3 2f34 3fc9 6a34 7999 6334
00000170: 55e1 0634 2286 9433 bb81 8733 93d6 af33
00000180: 06fa bf33 c60e a733 a0a5 2234 7dc8 b834
00000190: c2b6 c934 ad9b cd34 1de6 9c34 ffc3 8a34
000001a0: 62d0 8234 e30c 8f34 8852 5f34 d92d 3f34
000001b0: 1e33 6634 e29d 7134 ea2d 4534 3201 3134
000001c0: e183 5234 25ae 7d34 4027 7434 9fae 8c34
000001d0: 7372 7934 0fa6 2f35 7ba3 2135 aad8 ab34
000001e0: 3239 0535 02e8 c934 6c3c 8c34 904a ee34
000001f0: b276 e634 f925 8f34 3e08 2734 e4f9 8b34
00000200: bf8f 6e35 fc63 e333 759c 5c34 6512 4f35
00000210: c78b e233 15c7 7334 7eaa 5c35 c24a 3135
00000220: 0ff8 1d35 aec7 2235 e4c9 0d35 9970 fb34
00000230: ceac 0535 96cc 0b35 97fd 0835 2ee2 1135
00000240: a2aa 7835 72c8 ab35 9a01 b335 1312 9a35
00000250: 75a8 d635 885f c635 a1b3 5335 afa0 ba35
00000260: fe27 d535 8b33 e435 310a e435 3e7c eb35
00000270: d477 f335 f589 0636 ee12 0436 ffc7 da35
00000280: 361c e735 b364 d835 a9be 2f35 a611 ba35
00000290: 44e3 b235 bd7b 3235 3ccf aa35 cea1 a935
000002a0: c284 5a35 cbf9 c735 4d29 0036 16a9 bb35
000002b0: cf2e ac35 83b0 9335 b1e6 b935 39f6 bd35
000002c0: 3815 a035 6e30 a935 bd2e b135 e915 9835
000002d0: 897f 1f35 d34e 0735 a0ce 3b35 cd61 3d35
000002e0: 4eaf 2b35 69c3 4c35 8499 2835 74ca 3835
000002f0: 6f77 3035 1910 3c35 2e1a 6035 5323 4135
00000300: 6274 ac35 1773 d335 283b 9835 3725 c735
00000310: dd4b e835 c4df ce35 c5b0 d435 8512 af35
00000320: e345 4535 17df 1436 98b9 0336 c434 5735
00000330: fe97 6a35 997e 9535 afd7 4035 6370 0f35
00000340: 59ad 1e35 ea91 1735 2f4b 6535 7a7a 6f35
00000350: add4 6c35 6f25 6535 d105 7135 1628 6935
00000360: da35 cc35 5356 7e35 c8d5 2135 a797 a135
00000370: 5e9d 7235 2d8c 0735 eca8 9235 5463 6635
00000380: 6ae3 0735 0ee5 d135 84f7 f035 57e7 9d35
00000390: 5c07 e135 29bc e235 91c4 7d35 b17c 9e35
000003a0: 823e ab35 a8ba 4935 dcbf 1b36 e354 9935
000003b0: 091e 5835 07a6 c935 8773 4f35 7c4a 8335
000003c0: 1d73 d635 1f71 8635 8661 8635 5b4d 9f35
000003d0: 6036 bf35 1400 a935 2e1a 9735 30f9 a635
000003e0: d14e 9135 e5ee 9835 e956 9d35 5b77 8b35
000003f0: 854e 9834 74d3 7434 0ef9 6a34 a15f 8d34
1.8461377e-07 2.2870638e-07 5.9010773e-07 1.6710432e-07 2.7862148e-07 5.841416e-07 3.1882513e-07 3.6405183e-07
4.921355e-07 2.810301e-07 2.3783093e-07 3.941169e-07 2.7706648e-07 2.4396593e-07 2.6280063e-07 3.0075435e-07
3.0207946e-07 2.8230707e-07 6.2307555e-07 3.3280725e-07 8.234681e-07 5.9826874e-07 4.024297e-07 7.3665757e-07
5.9408893e-07 4.2524718e-07 7.17014e-07 2.3814418e-07 8.8754156e-08 1.16891925e-07 3.1714984e-07 1.9074716e-07
1.9900382e-07 4.111606e-07 3.659572e-07 3.5274206e-07 9.688335e-08 2.0118668e-07 2.7247384e-07 1.08540036e-07
1.5480983e-07 1.9939743e-07 1.1952305e-07 1.7866597e-07 2.8282477e-07 5.50052e-07 3.5089863e-07 2.231308e-07
2.701355e-07 1.5718858e-07 1.5838594e-07 1.7683878e-07 1.1645493e-07 1.1912527e-07 1.5320974e-07 3.3535858e-07
5.4787444e-07 1.5769382e-07 2.584503e-07 5.482496e-07 2.8467466e-07 3.206057e-07 6.0486406e-07 4.6032625e-07
2.997553e-07 2.3191645e-07 4.1946137e-07 2.8736494e-07 2.2235335e-07 3.8383843e-07 2.869153e-07 2.2125136e-07
1.3310091e-07 1.231047e-07 8.704446e-08 5.6178173e-08 8.810139e-08 7.152413e-08 3.7484686e-08 5.812461e-08
6.147297e-08 6.396491e-07 7.398709e-07 6.608325e-07 4.591619e-07 4.9668705e-07 3.5882582e-07 2.3009504e-07
2.1178478e-07 1.6369178e-07 2.1866161e-07 2.1196855e-07 1.2561698e-07 6.916186e-08 6.310025e-08 8.188103e-08
8.9396096e-08 7.779231e-08 1.514768e-07 3.4418545e-07 3.757214e-07 3.8297495e-07 2.9224694e-07 2.584711e-07
2.4366005e-07 2.6645202e-07 2.0798518e-07 1.780494e-07 2.1439016e-07 2.2502311e-07 1.8363758e-07 1.6484844e-07
1.9605751e-07 2.3625815e-07 2.273855e-07 2.6204086e-07 2.3231568e-07 6.543423e-07 6.021507e-07 3.2008876e-07
4.962959e-07 3.7607975e-07 2.6120995e-07 4.4385206e-07 4.29272e-07 2.6663454e-07 1.5556085e-07 2.6072587e-07
8.887109e-07 1.0588698e-07 2.0546015e-07 7.7140277e-07 1.05493704e-07 2.2703564e-07 8.2204485e-07 6.6046425e-07
5.884803e-07 6.0640275e-07 5.282038e-07 4.683432e-07 4.9797825e-07 5.2079247e-07 5.103297e-07 5.4345844e-07
9.26355e-07 1.279883e-06 1.3337005e-06 1.1479154e-06 1.599327e-06 1.4779953e-06 7.886502e-07 1.3904845e-06
1.5881376e-06 1.7002325e-06 1.699029e-06 1.7545024e-06 1.8139785e-06 2.0047858e-06 1.9680551e-06 1.6300472e-06
1.7219052e-06 1.6122561e-06 6.547003e-07 1.3863216e-06 1.3328176e-06 6.649023e-07 1.27263e-06 1.2638573e-06
8.1404517e-07 1.4899355e-06 1.9097527e-06 1.3981796e-06 1.2828622e-06 1.1003725e-06 1.3850714e-06 1.4153258e-06
1.1927104e-06 1.2605576e-06 1.320113e-06 1.1331259e-06 5.9417704e-07 5.0406123e-07 6.996361e-07 7.0550306e-07
6.3957566e-07 7.628028e-07 6.280827e-07 6.883995e-07 6.573891e-07 7.005888e-07 8.34846e-07 7.1949506e-07
1.284887e-06 1.5754221e-06 1.1342099e-06 1.4837486e-06 1.7307426e-06 1.541332e-06 1.5846678e-06 1.3043906e-06
7.348992e-07 2.2183574e-06 1.962855e-06 8.0170526e-07 8.739297e-07 1.113821e-06 7.1839435e-07 5.3435195e-07
5.911184e-07 5.6464216e-07 8.5418554e-07 8.9212665e-07 8.8226335e-07 8.536362e-07 8.978796e-07 8.6857597e-07
1.5214857e-06 9.474799e-07 6.0288266e-07 1.2039571e-06 9.0381025e-07 5.04954e-07 1.092701e-06 8.582622e-07
5.062235e-07 1.5638377e-06 1.795343e-06 1.176474e-06 1.6765948e-06 1.6893074e-06 9.4535886e-07 1.1808207e-06
1.2758685e-06 7.5149956e-07 2.3208477e-06 1.1424094e-06 8.050998e-07 1.5023987e-06 7.7281624e-07 9.781938e-07
1.5977745e-06 1.0016701e-06 1.0012161e-06 1.1868937e-06 1.4246434e-06 1.2591504e-06 1.1257996e-06 1.2440487e-06
1.082628e-06 1.139441e-06 1.1722706e-06 1.0391044e-06 2.8369337e-07 2.2801197e-07 2.1883554e-07 2.6332876e-07

exp_avg f4 [8]
00000000: ed20 932f 46eb 20af 25e6 0eaf e8a7 4430
00000010: 9ab3 adaf 74f4 4bb0 a037 97ad 9d7c 41af
2.676254e-10 -1.4635501e-10 -1.2996589e-10 7.1542994e-10 -3.159613e-10 -7.419836e-10 -1.7191415e-11 -1.7597519e-10

exp_avg_sq f4 [8]
00000000: d4ba b222 a423 1e23 5e5c cc23 e269 7423
00000010: 0505 b523 5304 ab23 11d2 ef23 13f3 7f22
4.844481e-18 8.572744e-18 2.2156843e-17 1.3249688e-17 1.9626185e-17 1.8541689e-17 2.6001399e-17 3.4687627e-18

exp_avg f4 [8]
00000000: 94c2 95b9 1d7d 17b9 e5ab 4f38 996d de38
00000010: ba12 c137 5213 be38 0491 0539 e729 5a38
-0.00028564467 -0.0001444709 4.9512735e-05 0.00010606199 2.3016113e-05 9.063505e-05 0.00012737891 5.2014275e-05

exp_avg_sq f4 [8]
00000000: 6948 fd35 07d3 9b36 7926 3b34 88f4 bb34
00000010: d7c6 0f36 212b 2935 366b ff35 f559 4d35
1.8871043e-06 4.643927e-06 1.7429728e-07 3.5009384e-07 2.14244e-06 6.3020167e-07 1.9030183e-06 7.6499356e-07

exp_avg f4 [8]
00000000: 4bf9 1bb8 a8e0 81b8 ce0c 9f38 2129 b438
00000010: 4b35 7a35 5a1e 1439 ed35 0639 ebef 7bb8
-3.7187052e-05 -6.193045e-05 7.584096e-05 8.59073e-05 9.320981e-07 0.00014125687 0.00012799325 -6.0066504e-05

exp_avg_sq f4 [8]
00000000: a099 4935 513f b436 cbde 6b34 b7bb 1f35
00000010: e5bf 8335 e840 0d36 065f a735 4d1c 9335
7.510189e-07 5.371789e-06 2.1967132e-07 5.9505277e-07 9.816109e-07 2.1048418e-06 1.2470125e-06 1.096059e-06
